{"format": "graph-model", "generatedBy": "1.15.0", "convertedBy": "TensorFlow.js Converter v1.4.0", "userDefinedMetadata": {"signature": {"inputs": {"input_x:0": {"name": "input_x:0", "dtype": "DT_FLOAT", "tensorShape": {"dim": [{"size": "1"}, {"size": "750"}, {"size": "1000"}, {"size": "1"}]}}}, "outputs": {"output_y:0": {"name": "output_y:0", "dtype": "DT_FLOAT", "tensorShape": {"dim": [{"size": "1"}, {"size": "4"}]}}}}}, "modelTopology": {"node": [{"name": "input_x", "op": "Placeholder", "attr": {"shape": {"shape": {"dim": [{"size": "1"}, {"size": "750"}, {"size": "1000"}, {"size": "1"}]}}, "dtype": {"type": "DT_FLOAT"}}}, {"name": "fc/b_final_op", "op": "Const", "attr": {"value": {"tensor": {"dtype": "DT_FLOAT", "tensorShape": {"dim": [{"size": "4"}]}}}, "dtype": {"type": "DT_FLOAT"}}}, {"name": "fc/Reshape/shape", "op": "Const", "attr": {"value": {"tensor": {"dtype": "DT_INT32", "tensorShape": {"dim": [{"size": "2"}]}}}, "dtype": {"type": "DT_INT32"}}}, {"name": "fc/w_final_op", "op": "Const", "attr": {"value": {"tensor": {"dtype": "DT_FLOAT", "tensorShape": {"dim": [{"size": "1024"}, {"size": "4"}]}}}, "dtype": {"type": "DT_FLOAT"}}}, {"name": "block0/conv0_0_op/conv_op_weights", "op": "Const", "attr": {"value": {"tensor": {"dtype": "DT_FLOAT", "tensorShape": {"dim": [{"size": "7"}, {"size": "7"}, {"size": "1"}, {"size": "64"}]}}}, "dtype": {"type": "DT_FLOAT"}}}, {"name": "block4/a_conv4_op/conv_op_weights", "op": "Const", "attr": {"value": {"tensor": {"dtype": "DT_FLOAT", "tensorShape": {"dim": [{"size": "1"}, {"size": "1"}, {"size": "512"}, {"size": "1024"}]}}}, "dtype": {"type": "DT_FLOAT"}}}, {"name": "block0/conv0_0_op/conv_op_bn_offset", "op": "Const", "attr": {"value": {"tensor": {"dtype": "DT_FLOAT", "tensorShape": {"dim": [{"size": "64"}]}}}, "dtype": {"type": "DT_FLOAT"}}}, {"name": "block1/a_conv1_op/conv_op_weights", "op": "Const", "attr": {"value": {"tensor": {"dtype": "DT_FLOAT", "tensorShape": {"dim": [{"size": "1"}, {"size": "1"}, {"size": "64"}, {"size": "64"}]}}}, "dtype": {"type": "DT_FLOAT"}}}, {"name": "block1/a_conv1_op/conv_op_bn_offset", "op": "Const", "attr": {"value": {"tensor": {"dtype": "DT_FLOAT", "tensorShape": {"dim": [{"size": "64"}]}}}, "dtype": {"type": "DT_FLOAT"}}}, {"name": "block4/a_conv4_op/conv_op_bn_offset", "op": "Const", "attr": {"value": {"tensor": {"dtype": "DT_FLOAT", "tensorShape": {"dim": [{"size": "1024"}]}}}, "dtype": {"type": "DT_FLOAT"}}}, {"name": "block1/a_conv4_op/conv_op_weights", "op": "Const", "attr": {"value": {"tensor": {"dtype": "DT_FLOAT", "tensorShape": {"dim": [{"size": "1"}, {"size": "1"}, {"size": "64"}, {"size": "128"}]}}}, "dtype": {"type": "DT_FLOAT"}}}, {"name": "block1/a_conv4_op/conv_op_bn_offset", "op": "Const", "attr": {"value": {"tensor": {"dtype": "DT_FLOAT", "tensorShape": {"dim": [{"size": "128"}]}}}, "dtype": {"type": "DT_FLOAT"}}}, {"name": "block1/a_conv2_op/conv_op_weights", "op": "Const", "attr": {"value": {"tensor": {"dtype": "DT_FLOAT", "tensorShape": {"dim": [{"size": "3"}, {"size": "3"}, {"size": "64"}, {"size": "64"}]}}}, "dtype": {"type": "DT_FLOAT"}}}, {"name": "block4/a_conv2_op/conv_op_weights", "op": "Const", "attr": {"value": {"tensor": {"dtype": "DT_FLOAT", "tensorShape": {"dim": [{"size": "3"}, {"size": "3"}, {"size": "512"}, {"size": "512"}]}}}, "dtype": {"type": "DT_FLOAT"}}}, {"name": "block1/a_conv2_op/conv_op_bn_offset", "op": "Const", "attr": {"value": {"tensor": {"dtype": "DT_FLOAT", "tensorShape": {"dim": [{"size": "64"}]}}}, "dtype": {"type": "DT_FLOAT"}}}, {"name": "block4/e_conv3_op/conv_op_bn_offset", "op": "Const", "attr": {"value": {"tensor": {"dtype": "DT_FLOAT", "tensorShape": {"dim": [{"size": "1024"}]}}}, "dtype": {"type": "DT_FLOAT"}}}, {"name": "block1/a_conv3_op/conv_op_weights", "op": "Const", "attr": {"value": {"tensor": {"dtype": "DT_FLOAT", "tensorShape": {"dim": [{"size": "1"}, {"size": "1"}, {"size": "64"}, {"size": "128"}]}}}, "dtype": {"type": "DT_FLOAT"}}}, {"name": "block4/a_conv2_op/conv_op_bn_offset", "op": "Const", "attr": {"value": {"tensor": {"dtype": "DT_FLOAT", "tensorShape": {"dim": [{"size": "512"}]}}}, "dtype": {"type": "DT_FLOAT"}}}, {"name": "block1/a_conv3_op/conv_op_bn_offset", "op": "Const", "attr": {"value": {"tensor": {"dtype": "DT_FLOAT", "tensorShape": {"dim": [{"size": "128"}]}}}, "dtype": {"type": "DT_FLOAT"}}}, {"name": "block1/b_conv1_op/conv_op_weights", "op": "Const", "attr": {"value": {"tensor": {"dtype": "DT_FLOAT", "tensorShape": {"dim": [{"size": "1"}, {"size": "1"}, {"size": "128"}, {"size": "64"}]}}}, "dtype": {"type": "DT_FLOAT"}}}, {"name": "block1/b_conv1_op/conv_op_bn_offset", "op": "Const", "attr": {"value": {"tensor": {"dtype": "DT_FLOAT", "tensorShape": {"dim": [{"size": "64"}]}}}, "dtype": {"type": "DT_FLOAT"}}}, {"name": "block4/a_conv3_op/conv_op_weights", "op": "Const", "attr": {"value": {"tensor": {"dtype": "DT_FLOAT", "tensorShape": {"dim": [{"size": "1"}, {"size": "1"}, {"size": "512"}, {"size": "1024"}]}}}, "dtype": {"type": "DT_FLOAT"}}}, {"name": "block1/b_conv2_op/conv_op_weights", "op": "Const", "attr": {"value": {"tensor": {"dtype": "DT_FLOAT", "tensorShape": {"dim": [{"size": "3"}, {"size": "3"}, {"size": "64"}, {"size": "64"}]}}}, "dtype": {"type": "DT_FLOAT"}}}, {"name": "block1/b_conv2_op/conv_op_bn_offset", "op": "Const", "attr": {"value": {"tensor": {"dtype": "DT_FLOAT", "tensorShape": {"dim": [{"size": "64"}]}}}, "dtype": {"type": "DT_FLOAT"}}}, {"name": "block4/a_conv3_op/conv_op_bn_offset", "op": "Const", "attr": {"value": {"tensor": {"dtype": "DT_FLOAT", "tensorShape": {"dim": [{"size": "1024"}]}}}, "dtype": {"type": "DT_FLOAT"}}}, {"name": "block1/b_conv3_op/conv_op_weights", "op": "Const", "attr": {"value": {"tensor": {"dtype": "DT_FLOAT", "tensorShape": {"dim": [{"size": "1"}, {"size": "1"}, {"size": "64"}, {"size": "128"}]}}}, "dtype": {"type": "DT_FLOAT"}}}, {"name": "block1/b_conv3_op/conv_op_bn_offset", "op": "Const", "attr": {"value": {"tensor": {"dtype": "DT_FLOAT", "tensorShape": {"dim": [{"size": "128"}]}}}, "dtype": {"type": "DT_FLOAT"}}}, {"name": "block1/c_conv1_op/conv_op_weights", "op": "Const", "attr": {"value": {"tensor": {"dtype": "DT_FLOAT", "tensorShape": {"dim": [{"size": "1"}, {"size": "1"}, {"size": "128"}, {"size": "64"}]}}}, "dtype": {"type": "DT_FLOAT"}}}, {"name": "block1/c_conv1_op/conv_op_bn_offset", "op": "Const", "attr": {"value": {"tensor": {"dtype": "DT_FLOAT", "tensorShape": {"dim": [{"size": "64"}]}}}, "dtype": {"type": "DT_FLOAT"}}}, {"name": "block1/c_conv2_op/conv_op_weights", "op": "Const", "attr": {"value": {"tensor": {"dtype": "DT_FLOAT", "tensorShape": {"dim": [{"size": "3"}, {"size": "3"}, {"size": "64"}, {"size": "64"}]}}}, "dtype": {"type": "DT_FLOAT"}}}, {"name": "block4/b_conv1_op/conv_op_weights", "op": "Const", "attr": {"value": {"tensor": {"dtype": "DT_FLOAT", "tensorShape": {"dim": [{"size": "1"}, {"size": "1"}, {"size": "1024"}, {"size": "512"}]}}}, "dtype": {"type": "DT_FLOAT"}}}, {"name": "block1/c_conv2_op/conv_op_bn_offset", "op": "Const", "attr": {"value": {"tensor": {"dtype": "DT_FLOAT", "tensorShape": {"dim": [{"size": "64"}]}}}, "dtype": {"type": "DT_FLOAT"}}}, {"name": "block1/c_conv3_op/conv_op_weights", "op": "Const", "attr": {"value": {"tensor": {"dtype": "DT_FLOAT", "tensorShape": {"dim": [{"size": "1"}, {"size": "1"}, {"size": "64"}, {"size": "128"}]}}}, "dtype": {"type": "DT_FLOAT"}}}, {"name": "block4/b_conv1_op/conv_op_bn_offset", "op": "Const", "attr": {"value": {"tensor": {"dtype": "DT_FLOAT", "tensorShape": {"dim": [{"size": "512"}]}}}, "dtype": {"type": "DT_FLOAT"}}}, {"name": "block1/c_conv3_op/conv_op_bn_offset", "op": "Const", "attr": {"value": {"tensor": {"dtype": "DT_FLOAT", "tensorShape": {"dim": [{"size": "128"}]}}}, "dtype": {"type": "DT_FLOAT"}}}, {"name": "block4/f_conv1_op/conv_op_weights", "op": "Const", "attr": {"value": {"tensor": {"dtype": "DT_FLOAT", "tensorShape": {"dim": [{"size": "1"}, {"size": "1"}, {"size": "1024"}, {"size": "512"}]}}}, "dtype": {"type": "DT_FLOAT"}}}, {"name": "block2/a_conv1_op/conv_op_weights", "op": "Const", "attr": {"value": {"tensor": {"dtype": "DT_FLOAT", "tensorShape": {"dim": [{"size": "1"}, {"size": "1"}, {"size": "128"}, {"size": "128"}]}}}, "dtype": {"type": "DT_FLOAT"}}}, {"name": "block2/a_conv1_op/conv_op_bn_offset", "op": "Const", "attr": {"value": {"tensor": {"dtype": "DT_FLOAT", "tensorShape": {"dim": [{"size": "128"}]}}}, "dtype": {"type": "DT_FLOAT"}}}, {"name": "block4/b_conv2_op/conv_op_weights", "op": "Const", "attr": {"value": {"tensor": {"dtype": "DT_FLOAT", "tensorShape": {"dim": [{"size": "3"}, {"size": "3"}, {"size": "512"}, {"size": "512"}]}}}, "dtype": {"type": "DT_FLOAT"}}}, {"name": "block2/a_conv4_op/conv_op_weights", "op": "Const", "attr": {"value": {"tensor": {"dtype": "DT_FLOAT", "tensorShape": {"dim": [{"size": "1"}, {"size": "1"}, {"size": "128"}, {"size": "256"}]}}}, "dtype": {"type": "DT_FLOAT"}}}, {"name": "block2/a_conv4_op/conv_op_bn_offset", "op": "Const", "attr": {"value": {"tensor": {"dtype": "DT_FLOAT", "tensorShape": {"dim": [{"size": "256"}]}}}, "dtype": {"type": "DT_FLOAT"}}}, {"name": "block2/a_conv2_op/conv_op_weights", "op": "Const", "attr": {"value": {"tensor": {"dtype": "DT_FLOAT", "tensorShape": {"dim": [{"size": "3"}, {"size": "3"}, {"size": "128"}, {"size": "128"}]}}}, "dtype": {"type": "DT_FLOAT"}}}, {"name": "block4/b_conv2_op/conv_op_bn_offset", "op": "Const", "attr": {"value": {"tensor": {"dtype": "DT_FLOAT", "tensorShape": {"dim": [{"size": "512"}]}}}, "dtype": {"type": "DT_FLOAT"}}}, {"name": "block2/a_conv2_op/conv_op_bn_offset", "op": "Const", "attr": {"value": {"tensor": {"dtype": "DT_FLOAT", "tensorShape": {"dim": [{"size": "128"}]}}}, "dtype": {"type": "DT_FLOAT"}}}, {"name": "block4/f_conv1_op/conv_op_bn_offset", "op": "Const", "attr": {"value": {"tensor": {"dtype": "DT_FLOAT", "tensorShape": {"dim": [{"size": "512"}]}}}, "dtype": {"type": "DT_FLOAT"}}}, {"name": "block2/a_conv3_op/conv_op_weights", "op": "Const", "attr": {"value": {"tensor": {"dtype": "DT_FLOAT", "tensorShape": {"dim": [{"size": "1"}, {"size": "1"}, {"size": "128"}, {"size": "256"}]}}}, "dtype": {"type": "DT_FLOAT"}}}, {"name": "block2/a_conv3_op/conv_op_bn_offset", "op": "Const", "attr": {"value": {"tensor": {"dtype": "DT_FLOAT", "tensorShape": {"dim": [{"size": "256"}]}}}, "dtype": {"type": "DT_FLOAT"}}}, {"name": "block4/b_conv3_op/conv_op_weights", "op": "Const", "attr": {"value": {"tensor": {"dtype": "DT_FLOAT", "tensorShape": {"dim": [{"size": "1"}, {"size": "1"}, {"size": "512"}, {"size": "1024"}]}}}, "dtype": {"type": "DT_FLOAT"}}}, {"name": "block2/b_conv1_op/conv_op_weights", "op": "Const", "attr": {"value": {"tensor": {"dtype": "DT_FLOAT", "tensorShape": {"dim": [{"size": "1"}, {"size": "1"}, {"size": "256"}, {"size": "128"}]}}}, "dtype": {"type": "DT_FLOAT"}}}, {"name": "block2/b_conv1_op/conv_op_bn_offset", "op": "Const", "attr": {"value": {"tensor": {"dtype": "DT_FLOAT", "tensorShape": {"dim": [{"size": "128"}]}}}, "dtype": {"type": "DT_FLOAT"}}}, {"name": "block4/b_conv3_op/conv_op_bn_offset", "op": "Const", "attr": {"value": {"tensor": {"dtype": "DT_FLOAT", "tensorShape": {"dim": [{"size": "1024"}]}}}, "dtype": {"type": "DT_FLOAT"}}}, {"name": "block2/b_conv2_op/conv_op_weights", "op": "Const", "attr": {"value": {"tensor": {"dtype": "DT_FLOAT", "tensorShape": {"dim": [{"size": "3"}, {"size": "3"}, {"size": "128"}, {"size": "128"}]}}}, "dtype": {"type": "DT_FLOAT"}}}, {"name": "block2/b_conv2_op/conv_op_bn_offset", "op": "Const", "attr": {"value": {"tensor": {"dtype": "DT_FLOAT", "tensorShape": {"dim": [{"size": "128"}]}}}, "dtype": {"type": "DT_FLOAT"}}}, {"name": "block2/b_conv3_op/conv_op_weights", "op": "Const", "attr": {"value": {"tensor": {"dtype": "DT_FLOAT", "tensorShape": {"dim": [{"size": "1"}, {"size": "1"}, {"size": "128"}, {"size": "256"}]}}}, "dtype": {"type": "DT_FLOAT"}}}, {"name": "block2/b_conv3_op/conv_op_bn_offset", "op": "Const", "attr": {"value": {"tensor": {"dtype": "DT_FLOAT", "tensorShape": {"dim": [{"size": "256"}]}}}, "dtype": {"type": "DT_FLOAT"}}}, {"name": "block2/c_conv1_op/conv_op_weights", "op": "Const", "attr": {"value": {"tensor": {"dtype": "DT_FLOAT", "tensorShape": {"dim": [{"size": "1"}, {"size": "1"}, {"size": "256"}, {"size": "128"}]}}}, "dtype": {"type": "DT_FLOAT"}}}, {"name": "block4/c_conv1_op/conv_op_weights", "op": "Const", "attr": {"value": {"tensor": {"dtype": "DT_FLOAT", "tensorShape": {"dim": [{"size": "1"}, {"size": "1"}, {"size": "1024"}, {"size": "512"}]}}}, "dtype": {"type": "DT_FLOAT"}}}, {"name": "block2/c_conv1_op/conv_op_bn_offset", "op": "Const", "attr": {"value": {"tensor": {"dtype": "DT_FLOAT", "tensorShape": {"dim": [{"size": "128"}]}}}, "dtype": {"type": "DT_FLOAT"}}}, {"name": "block4/f_conv2_op/conv_op_weights", "op": "Const", "attr": {"value": {"tensor": {"dtype": "DT_FLOAT", "tensorShape": {"dim": [{"size": "3"}, {"size": "3"}, {"size": "512"}, {"size": "512"}]}}}, "dtype": {"type": "DT_FLOAT"}}}, {"name": "block2/c_conv2_op/conv_op_weights", "op": "Const", "attr": {"value": {"tensor": {"dtype": "DT_FLOAT", "tensorShape": {"dim": [{"size": "3"}, {"size": "3"}, {"size": "128"}, {"size": "128"}]}}}, "dtype": {"type": "DT_FLOAT"}}}, {"name": "block4/c_conv1_op/conv_op_bn_offset", "op": "Const", "attr": {"value": {"tensor": {"dtype": "DT_FLOAT", "tensorShape": {"dim": [{"size": "512"}]}}}, "dtype": {"type": "DT_FLOAT"}}}, {"name": "block2/c_conv2_op/conv_op_bn_offset", "op": "Const", "attr": {"value": {"tensor": {"dtype": "DT_FLOAT", "tensorShape": {"dim": [{"size": "128"}]}}}, "dtype": {"type": "DT_FLOAT"}}}, {"name": "block2/c_conv3_op/conv_op_weights", "op": "Const", "attr": {"value": {"tensor": {"dtype": "DT_FLOAT", "tensorShape": {"dim": [{"size": "1"}, {"size": "1"}, {"size": "128"}, {"size": "256"}]}}}, "dtype": {"type": "DT_FLOAT"}}}, {"name": "block2/c_conv3_op/conv_op_bn_offset", "op": "Const", "attr": {"value": {"tensor": {"dtype": "DT_FLOAT", "tensorShape": {"dim": [{"size": "256"}]}}}, "dtype": {"type": "DT_FLOAT"}}}, {"name": "block4/c_conv2_op/conv_op_weights", "op": "Const", "attr": {"value": {"tensor": {"dtype": "DT_FLOAT", "tensorShape": {"dim": [{"size": "3"}, {"size": "3"}, {"size": "512"}, {"size": "512"}]}}}, "dtype": {"type": "DT_FLOAT"}}}, {"name": "block2/d_conv1_op/conv_op_weights", "op": "Const", "attr": {"value": {"tensor": {"dtype": "DT_FLOAT", "tensorShape": {"dim": [{"size": "1"}, {"size": "1"}, {"size": "256"}, {"size": "128"}]}}}, "dtype": {"type": "DT_FLOAT"}}}, {"name": "block4/f_conv2_op/conv_op_bn_offset", "op": "Const", "attr": {"value": {"tensor": {"dtype": "DT_FLOAT", "tensorShape": {"dim": [{"size": "512"}]}}}, "dtype": {"type": "DT_FLOAT"}}}, {"name": "block2/d_conv1_op/conv_op_bn_offset", "op": "Const", "attr": {"value": {"tensor": {"dtype": "DT_FLOAT", "tensorShape": {"dim": [{"size": "128"}]}}}, "dtype": {"type": "DT_FLOAT"}}}, {"name": "block4/c_conv2_op/conv_op_bn_offset", "op": "Const", "attr": {"value": {"tensor": {"dtype": "DT_FLOAT", "tensorShape": {"dim": [{"size": "512"}]}}}, "dtype": {"type": "DT_FLOAT"}}}, {"name": "block2/d_conv2_op/conv_op_weights", "op": "Const", "attr": {"value": {"tensor": {"dtype": "DT_FLOAT", "tensorShape": {"dim": [{"size": "3"}, {"size": "3"}, {"size": "128"}, {"size": "128"}]}}}, "dtype": {"type": "DT_FLOAT"}}}, {"name": "batch_normalization/FusedBatchNormV3/Scaled", "op": "Const", "attr": {"value": {"tensor": {"dtype": "DT_FLOAT", "tensorShape": {"dim": [{"size": "1"}]}}}, "dtype": {"type": "DT_FLOAT"}}}, {"name": "block2/d_conv2_op/conv_op_bn_offset", "op": "Const", "attr": {"value": {"tensor": {"dtype": "DT_FLOAT", "tensorShape": {"dim": [{"size": "128"}]}}}, "dtype": {"type": "DT_FLOAT"}}}, {"name": "block2/d_conv3_op/conv_op_weights", "op": "Const", "attr": {"value": {"tensor": {"dtype": "DT_FLOAT", "tensorShape": {"dim": [{"size": "1"}, {"size": "1"}, {"size": "128"}, {"size": "256"}]}}}, "dtype": {"type": "DT_FLOAT"}}}, {"name": "block4/c_conv3_op/conv_op_weights", "op": "Const", "attr": {"value": {"tensor": {"dtype": "DT_FLOAT", "tensorShape": {"dim": [{"size": "1"}, {"size": "1"}, {"size": "512"}, {"size": "1024"}]}}}, "dtype": {"type": "DT_FLOAT"}}}, {"name": "block2/d_conv3_op/conv_op_bn_offset", "op": "Const", "attr": {"value": {"tensor": {"dtype": "DT_FLOAT", "tensorShape": {"dim": [{"size": "256"}]}}}, "dtype": {"type": "DT_FLOAT"}}}, {"name": "block3/a_conv1_op/conv_op_weights", "op": "Const", "attr": {"value": {"tensor": {"dtype": "DT_FLOAT", "tensorShape": {"dim": [{"size": "1"}, {"size": "1"}, {"size": "256"}, {"size": "256"}]}}}, "dtype": {"type": "DT_FLOAT"}}}, {"name": "block4/c_conv3_op/conv_op_bn_offset", "op": "Const", "attr": {"value": {"tensor": {"dtype": "DT_FLOAT", "tensorShape": {"dim": [{"size": "1024"}]}}}, "dtype": {"type": "DT_FLOAT"}}}, {"name": "block3/a_conv1_op/conv_op_bn_offset", "op": "Const", "attr": {"value": {"tensor": {"dtype": "DT_FLOAT", "tensorShape": {"dim": [{"size": "256"}]}}}, "dtype": {"type": "DT_FLOAT"}}}, {"name": "block4/f_conv3_op/conv_op_weights", "op": "Const", "attr": {"value": {"tensor": {"dtype": "DT_FLOAT", "tensorShape": {"dim": [{"size": "1"}, {"size": "1"}, {"size": "512"}, {"size": "1024"}]}}}, "dtype": {"type": "DT_FLOAT"}}}, {"name": "block3/a_conv4_op/conv_op_weights", "op": "Const", "attr": {"value": {"tensor": {"dtype": "DT_FLOAT", "tensorShape": {"dim": [{"size": "1"}, {"size": "1"}, {"size": "256"}, {"size": "512"}]}}}, "dtype": {"type": "DT_FLOAT"}}}, {"name": "block3/a_conv4_op/conv_op_bn_offset", "op": "Const", "attr": {"value": {"tensor": {"dtype": "DT_FLOAT", "tensorShape": {"dim": [{"size": "512"}]}}}, "dtype": {"type": "DT_FLOAT"}}}, {"name": "block3/a_conv2_op/conv_op_weights", "op": "Const", "attr": {"value": {"tensor": {"dtype": "DT_FLOAT", "tensorShape": {"dim": [{"size": "3"}, {"size": "3"}, {"size": "256"}, {"size": "256"}]}}}, "dtype": {"type": "DT_FLOAT"}}}, {"name": "block3/a_conv2_op/conv_op_bn_offset", "op": "Const", "attr": {"value": {"tensor": {"dtype": "DT_FLOAT", "tensorShape": {"dim": [{"size": "256"}]}}}, "dtype": {"type": "DT_FLOAT"}}}, {"name": "block3/a_conv3_op/conv_op_weights", "op": "Const", "attr": {"value": {"tensor": {"dtype": "DT_FLOAT", "tensorShape": {"dim": [{"size": "1"}, {"size": "1"}, {"size": "256"}, {"size": "512"}]}}}, "dtype": {"type": "DT_FLOAT"}}}, {"name": "block4/d_conv1_op/conv_op_weights", "op": "Const", "attr": {"value": {"tensor": {"dtype": "DT_FLOAT", "tensorShape": {"dim": [{"size": "1"}, {"size": "1"}, {"size": "1024"}, {"size": "512"}]}}}, "dtype": {"type": "DT_FLOAT"}}}, {"name": "block3/a_conv3_op/conv_op_bn_offset", "op": "Const", "attr": {"value": {"tensor": {"dtype": "DT_FLOAT", "tensorShape": {"dim": [{"size": "512"}]}}}, "dtype": {"type": "DT_FLOAT"}}}, {"name": "block3/b_conv1_op/conv_op_weights", "op": "Const", "attr": {"value": {"tensor": {"dtype": "DT_FLOAT", "tensorShape": {"dim": [{"size": "1"}, {"size": "1"}, {"size": "512"}, {"size": "256"}]}}}, "dtype": {"type": "DT_FLOAT"}}}, {"name": "block4/d_conv1_op/conv_op_bn_offset", "op": "Const", "attr": {"value": {"tensor": {"dtype": "DT_FLOAT", "tensorShape": {"dim": [{"size": "512"}]}}}, "dtype": {"type": "DT_FLOAT"}}}, {"name": "block3/b_conv1_op/conv_op_bn_offset", "op": "Const", "attr": {"value": {"tensor": {"dtype": "DT_FLOAT", "tensorShape": {"dim": [{"size": "256"}]}}}, "dtype": {"type": "DT_FLOAT"}}}, {"name": "block4/f_conv3_op/conv_op_bn_offset", "op": "Const", "attr": {"value": {"tensor": {"dtype": "DT_FLOAT", "tensorShape": {"dim": [{"size": "1024"}]}}}, "dtype": {"type": "DT_FLOAT"}}}, {"name": "block3/b_conv2_op/conv_op_weights", "op": "Const", "attr": {"value": {"tensor": {"dtype": "DT_FLOAT", "tensorShape": {"dim": [{"size": "3"}, {"size": "3"}, {"size": "256"}, {"size": "256"}]}}}, "dtype": {"type": "DT_FLOAT"}}}, {"name": "block3/b_conv2_op/conv_op_bn_offset", "op": "Const", "attr": {"value": {"tensor": {"dtype": "DT_FLOAT", "tensorShape": {"dim": [{"size": "256"}]}}}, "dtype": {"type": "DT_FLOAT"}}}, {"name": "block4/d_conv2_op/conv_op_weights", "op": "Const", "attr": {"value": {"tensor": {"dtype": "DT_FLOAT", "tensorShape": {"dim": [{"size": "3"}, {"size": "3"}, {"size": "512"}, {"size": "512"}]}}}, "dtype": {"type": "DT_FLOAT"}}}, {"name": "block3/b_conv3_op/conv_op_weights", "op": "Const", "attr": {"value": {"tensor": {"dtype": "DT_FLOAT", "tensorShape": {"dim": [{"size": "1"}, {"size": "1"}, {"size": "256"}, {"size": "512"}]}}}, "dtype": {"type": "DT_FLOAT"}}}, {"name": "block3/b_conv3_op/conv_op_bn_offset", "op": "Const", "attr": {"value": {"tensor": {"dtype": "DT_FLOAT", "tensorShape": {"dim": [{"size": "512"}]}}}, "dtype": {"type": "DT_FLOAT"}}}, {"name": "block4/d_conv2_op/conv_op_bn_offset", "op": "Const", "attr": {"value": {"tensor": {"dtype": "DT_FLOAT", "tensorShape": {"dim": [{"size": "512"}]}}}, "dtype": {"type": "DT_FLOAT"}}}, {"name": "block3/c_conv1_op/conv_op_weights", "op": "Const", "attr": {"value": {"tensor": {"dtype": "DT_FLOAT", "tensorShape": {"dim": [{"size": "1"}, {"size": "1"}, {"size": "512"}, {"size": "256"}]}}}, "dtype": {"type": "DT_FLOAT"}}}, {"name": "block3/c_conv1_op/conv_op_bn_offset", "op": "Const", "attr": {"value": {"tensor": {"dtype": "DT_FLOAT", "tensorShape": {"dim": [{"size": "256"}]}}}, "dtype": {"type": "DT_FLOAT"}}}, {"name": "block3/c_conv2_op/conv_op_weights", "op": "Const", "attr": {"value": {"tensor": {"dtype": "DT_FLOAT", "tensorShape": {"dim": [{"size": "3"}, {"size": "3"}, {"size": "256"}, {"size": "256"}]}}}, "dtype": {"type": "DT_FLOAT"}}}, {"name": "block4/d_conv3_op/conv_op_weights", "op": "Const", "attr": {"value": {"tensor": {"dtype": "DT_FLOAT", "tensorShape": {"dim": [{"size": "1"}, {"size": "1"}, {"size": "512"}, {"size": "1024"}]}}}, "dtype": {"type": "DT_FLOAT"}}}, {"name": "block3/c_conv2_op/conv_op_bn_offset", "op": "Const", "attr": {"value": {"tensor": {"dtype": "DT_FLOAT", "tensorShape": {"dim": [{"size": "256"}]}}}, "dtype": {"type": "DT_FLOAT"}}}, {"name": "block3/c_conv3_op/conv_op_weights", "op": "Const", "attr": {"value": {"tensor": {"dtype": "DT_FLOAT", "tensorShape": {"dim": [{"size": "1"}, {"size": "1"}, {"size": "256"}, {"size": "512"}]}}}, "dtype": {"type": "DT_FLOAT"}}}, {"name": "block4/d_conv3_op/conv_op_bn_offset", "op": "Const", "attr": {"value": {"tensor": {"dtype": "DT_FLOAT", "tensorShape": {"dim": [{"size": "1024"}]}}}, "dtype": {"type": "DT_FLOAT"}}}, {"name": "block3/c_conv3_op/conv_op_bn_offset", "op": "Const", "attr": {"value": {"tensor": {"dtype": "DT_FLOAT", "tensorShape": {"dim": [{"size": "512"}]}}}, "dtype": {"type": "DT_FLOAT"}}}, {"name": "block3/d_conv1_op/conv_op_weights", "op": "Const", "attr": {"value": {"tensor": {"dtype": "DT_FLOAT", "tensorShape": {"dim": [{"size": "1"}, {"size": "1"}, {"size": "512"}, {"size": "256"}]}}}, "dtype": {"type": "DT_FLOAT"}}}, {"name": "block3/d_conv1_op/conv_op_bn_offset", "op": "Const", "attr": {"value": {"tensor": {"dtype": "DT_FLOAT", "tensorShape": {"dim": [{"size": "256"}]}}}, "dtype": {"type": "DT_FLOAT"}}}, {"name": "block3/d_conv2_op/conv_op_weights", "op": "Const", "attr": {"value": {"tensor": {"dtype": "DT_FLOAT", "tensorShape": {"dim": [{"size": "3"}, {"size": "3"}, {"size": "256"}, {"size": "256"}]}}}, "dtype": {"type": "DT_FLOAT"}}}, {"name": "block3/d_conv2_op/conv_op_bn_offset", "op": "Const", "attr": {"value": {"tensor": {"dtype": "DT_FLOAT", "tensorShape": {"dim": [{"size": "256"}]}}}, "dtype": {"type": "DT_FLOAT"}}}, {"name": "block4/e_conv1_op/conv_op_weights", "op": "Const", "attr": {"value": {"tensor": {"dtype": "DT_FLOAT", "tensorShape": {"dim": [{"size": "1"}, {"size": "1"}, {"size": "1024"}, {"size": "512"}]}}}, "dtype": {"type": "DT_FLOAT"}}}, {"name": "block3/d_conv3_op/conv_op_weights", "op": "Const", "attr": {"value": {"tensor": {"dtype": "DT_FLOAT", "tensorShape": {"dim": [{"size": "1"}, {"size": "1"}, {"size": "256"}, {"size": "512"}]}}}, "dtype": {"type": "DT_FLOAT"}}}, {"name": "block3/d_conv3_op/conv_op_bn_offset", "op": "Const", "attr": {"value": {"tensor": {"dtype": "DT_FLOAT", "tensorShape": {"dim": [{"size": "512"}]}}}, "dtype": {"type": "DT_FLOAT"}}}, {"name": "block4/e_conv1_op/conv_op_bn_offset", "op": "Const", "attr": {"value": {"tensor": {"dtype": "DT_FLOAT", "tensorShape": {"dim": [{"size": "512"}]}}}, "dtype": {"type": "DT_FLOAT"}}}, {"name": "block3/e_conv1_op/conv_op_weights", "op": "Const", "attr": {"value": {"tensor": {"dtype": "DT_FLOAT", "tensorShape": {"dim": [{"size": "1"}, {"size": "1"}, {"size": "512"}, {"size": "256"}]}}}, "dtype": {"type": "DT_FLOAT"}}}, {"name": "block3/e_conv1_op/conv_op_bn_offset", "op": "Const", "attr": {"value": {"tensor": {"dtype": "DT_FLOAT", "tensorShape": {"dim": [{"size": "256"}]}}}, "dtype": {"type": "DT_FLOAT"}}}, {"name": "block3/e_conv2_op/conv_op_weights", "op": "Const", "attr": {"value": {"tensor": {"dtype": "DT_FLOAT", "tensorShape": {"dim": [{"size": "3"}, {"size": "3"}, {"size": "256"}, {"size": "256"}]}}}, "dtype": {"type": "DT_FLOAT"}}}, {"name": "block4/e_conv2_op/conv_op_weights", "op": "Const", "attr": {"value": {"tensor": {"dtype": "DT_FLOAT", "tensorShape": {"dim": [{"size": "3"}, {"size": "3"}, {"size": "512"}, {"size": "512"}]}}}, "dtype": {"type": "DT_FLOAT"}}}, {"name": "block3/e_conv2_op/conv_op_bn_offset", "op": "Const", "attr": {"value": {"tensor": {"dtype": "DT_FLOAT", "tensorShape": {"dim": [{"size": "256"}]}}}, "dtype": {"type": "DT_FLOAT"}}}, {"name": "batch_normalization/FusedBatchNormV3/Offset", "op": "Const", "attr": {"value": {"tensor": {"dtype": "DT_FLOAT", "tensorShape": {"dim": [{"size": "1"}]}}}, "dtype": {"type": "DT_FLOAT"}}}, {"name": "block3/e_conv3_op/conv_op_weights", "op": "Const", "attr": {"value": {"tensor": {"dtype": "DT_FLOAT", "tensorShape": {"dim": [{"size": "1"}, {"size": "1"}, {"size": "256"}, {"size": "512"}]}}}, "dtype": {"type": "DT_FLOAT"}}}, {"name": "block4/e_conv2_op/conv_op_bn_offset", "op": "Const", "attr": {"value": {"tensor": {"dtype": "DT_FLOAT", "tensorShape": {"dim": [{"size": "512"}]}}}, "dtype": {"type": "DT_FLOAT"}}}, {"name": "block3/e_conv3_op/conv_op_bn_offset", "op": "Const", "attr": {"value": {"tensor": {"dtype": "DT_FLOAT", "tensorShape": {"dim": [{"size": "512"}]}}}, "dtype": {"type": "DT_FLOAT"}}}, {"name": "block4/a_conv1_op/conv_op_weights", "op": "Const", "attr": {"value": {"tensor": {"dtype": "DT_FLOAT", "tensorShape": {"dim": [{"size": "1"}, {"size": "1"}, {"size": "512"}, {"size": "512"}]}}}, "dtype": {"type": "DT_FLOAT"}}}, {"name": "block4/a_conv1_op/conv_op_bn_offset", "op": "Const", "attr": {"value": {"tensor": {"dtype": "DT_FLOAT", "tensorShape": {"dim": [{"size": "512"}]}}}, "dtype": {"type": "DT_FLOAT"}}}, {"name": "block4/e_conv3_op/conv_op_weights", "op": "Const", "attr": {"value": {"tensor": {"dtype": "DT_FLOAT", "tensorShape": {"dim": [{"size": "1"}, {"size": "1"}, {"size": "512"}, {"size": "1024"}]}}}, "dtype": {"type": "DT_FLOAT"}}}, {"name": "batch_normalization/FusedBatchNormV3/Mul", "op": "Mul", "input": ["batch_normalization/FusedBatchNormV3/Scaled", "input_x"], "attr": {"T": {"type": "DT_FLOAT"}}}, {"name": "batch_normalization/FusedBatchNormV3", "op": "Add", "input": ["batch_normalization/FusedBatchNormV3/Mul", "batch_normalization/FusedBatchNormV3/Offset"], "attr": {"T": {"type": "DT_FLOAT"}}}, {"name": "block0/batch_normalization/FusedBatchNormV3", "op": "_FusedConv2D", "input": ["batch_normalization/FusedBatchNormV3", "block0/conv0_0_op/conv_op_weights", "block0/conv0_0_op/conv_op_bn_offset"], "device": "/device:CPU:0", "attr": {"dilations": {"list": {"i": ["1", "1", "1", "1"]}}, "T": {"type": "DT_FLOAT"}, "strides": {"list": {"i": ["1", "2", "2", "1"]}}, "data_format": {"s": "TkhXQw=="}, "use_cudnn_on_gpu": {"b": true}, "explicit_paddings": {"list": {}}, "num_args": {"i": "1"}, "epsilon": {"f": 0.0}, "padding": {"s": "U0FNRQ=="}, "fused_ops": {"list": {"s": ["Qmlhc0FkZA=="]}}}}, {"name": "block0/pool0_0_op/max_pool_op", "op": "MaxPool", "input": ["block0/batch_normalization/FusedBatchNormV3"], "attr": {"ksize": {"list": {"i": ["1", "3", "3", "1"]}}, "padding": {"s": "U0FNRQ=="}, "T": {"type": "DT_FLOAT"}, "data_format": {"s": "TkhXQw=="}, "strides": {"list": {"i": ["1", "2", "2", "1"]}}}}, {"name": "block0/Relu", "op": "Relu", "input": ["block0/pool0_0_op/max_pool_op"], "attr": {"T": {"type": "DT_FLOAT"}}}, {"name": "block1/Relu", "op": "_FusedConv2D", "input": ["block0/Relu", "block1/a_conv1_op/conv_op_weights", "block1/a_conv1_op/conv_op_bn_offset"], "device": "/device:CPU:0", "attr": {"dilations": {"list": {"i": ["1", "1", "1", "1"]}}, "T": {"type": "DT_FLOAT"}, "strides": {"list": {"i": ["1", "1", "1", "1"]}}, "data_format": {"s": "TkhXQw=="}, "use_cudnn_on_gpu": {"b": true}, "explicit_paddings": {"list": {}}, "num_args": {"i": "1"}, "epsilon": {"f": 0.0}, "padding": {"s": "U0FNRQ=="}, "fused_ops": {"list": {"s": ["Qmlhc0FkZA==", "UmVsdQ=="]}}}}, {"name": "block1/batch_normalization_3/FusedBatchNormV3", "op": "_FusedConv2D", "input": ["block0/Relu", "block1/a_conv4_op/conv_op_weights", "block1/a_conv4_op/conv_op_bn_offset"], "device": "/device:CPU:0", "attr": {"epsilon": {"f": 0.0}, "padding": {"s": "U0FNRQ=="}, "fused_ops": {"list": {"s": ["Qmlhc0FkZA=="]}}, "dilations": {"list": {"i": ["1", "1", "1", "1"]}}, "T": {"type": "DT_FLOAT"}, "data_format": {"s": "TkhXQw=="}, "strides": {"list": {"i": ["1", "2", "2", "1"]}}, "use_cudnn_on_gpu": {"b": true}, "explicit_paddings": {"list": {}}, "num_args": {"i": "1"}}}, {"name": "block1/Relu_1", "op": "_FusedConv2D", "input": ["block1/Relu", "block1/a_conv2_op/conv_op_weights", "block1/a_conv2_op/conv_op_bn_offset"], "device": "/device:CPU:0", "attr": {"dilations": {"list": {"i": ["1", "1", "1", "1"]}}, "T": {"type": "DT_FLOAT"}, "strides": {"list": {"i": ["1", "2", "2", "1"]}}, "data_format": {"s": "TkhXQw=="}, "use_cudnn_on_gpu": {"b": true}, "explicit_paddings": {"list": {}}, "num_args": {"i": "1"}, "epsilon": {"f": 0.0}, "padding": {"s": "U0FNRQ=="}, "fused_ops": {"list": {"s": ["Qmlhc0FkZA==", "UmVsdQ=="]}}}}, {"name": "block1/Relu_2", "op": "_FusedConv2D", "input": ["block1/Relu_1", "block1/a_conv3_op/conv_op_weights", "block1/a_conv3_op/conv_op_bn_offset"], "device": "/device:CPU:0", "attr": {"dilations": {"list": {"i": ["1", "1", "1", "1"]}}, "T": {"type": "DT_FLOAT"}, "strides": {"list": {"i": ["1", "1", "1", "1"]}}, "data_format": {"s": "TkhXQw=="}, "use_cudnn_on_gpu": {"b": true}, "explicit_paddings": {"list": {}}, "num_args": {"i": "1"}, "epsilon": {"f": 0.0}, "padding": {"s": "U0FNRQ=="}, "fused_ops": {"list": {"s": ["Qmlhc0FkZA==", "UmVsdQ=="]}}}}, {"name": "block1/Add", "op": "Add", "input": ["block1/Relu_2", "block1/batch_normalization_3/FusedBatchNormV3"], "attr": {"T": {"type": "DT_FLOAT"}}}, {"name": "block1/Relu_3", "op": "Relu", "input": ["block1/Add"], "attr": {"T": {"type": "DT_FLOAT"}}}, {"name": "block1/Relu_4", "op": "_FusedConv2D", "input": ["block1/Relu_3", "block1/b_conv1_op/conv_op_weights", "block1/b_conv1_op/conv_op_bn_offset"], "device": "/device:CPU:0", "attr": {"epsilon": {"f": 0.0}, "padding": {"s": "U0FNRQ=="}, "fused_ops": {"list": {"s": ["Qmlhc0FkZA==", "UmVsdQ=="]}}, "dilations": {"list": {"i": ["1", "1", "1", "1"]}}, "T": {"type": "DT_FLOAT"}, "data_format": {"s": "TkhXQw=="}, "strides": {"list": {"i": ["1", "1", "1", "1"]}}, "explicit_paddings": {"list": {}}, "use_cudnn_on_gpu": {"b": true}, "num_args": {"i": "1"}}}, {"name": "block1/Relu_5", "op": "_FusedConv2D", "input": ["block1/Relu_4", "block1/b_conv2_op/conv_op_weights", "block1/b_conv2_op/conv_op_bn_offset"], "device": "/device:CPU:0", "attr": {"dilations": {"list": {"i": ["1", "1", "1", "1"]}}, "T": {"type": "DT_FLOAT"}, "strides": {"list": {"i": ["1", "1", "1", "1"]}}, "data_format": {"s": "TkhXQw=="}, "explicit_paddings": {"list": {}}, "use_cudnn_on_gpu": {"b": true}, "num_args": {"i": "1"}, "epsilon": {"f": 0.0}, "padding": {"s": "U0FNRQ=="}, "fused_ops": {"list": {"s": ["Qmlhc0FkZA==", "UmVsdQ=="]}}}}, {"name": "block1/Relu_6", "op": "_FusedConv2D", "input": ["block1/Relu_5", "block1/b_conv3_op/conv_op_weights", "block1/b_conv3_op/conv_op_bn_offset"], "device": "/device:CPU:0", "attr": {"dilations": {"list": {"i": ["1", "1", "1", "1"]}}, "T": {"type": "DT_FLOAT"}, "data_format": {"s": "TkhXQw=="}, "strides": {"list": {"i": ["1", "1", "1", "1"]}}, "explicit_paddings": {"list": {}}, "use_cudnn_on_gpu": {"b": true}, "num_args": {"i": "1"}, "epsilon": {"f": 0.0}, "padding": {"s": "U0FNRQ=="}, "fused_ops": {"list": {"s": ["Qmlhc0FkZA==", "UmVsdQ=="]}}}}, {"name": "block1/Add_1", "op": "Add", "input": ["block1/Relu_3", "block1/Relu_6"], "attr": {"T": {"type": "DT_FLOAT"}}}, {"name": "block1/Relu_7", "op": "Relu", "input": ["block1/Add_1"], "attr": {"T": {"type": "DT_FLOAT"}}}, {"name": "block1/Relu_8", "op": "_FusedConv2D", "input": ["block1/Relu_7", "block1/c_conv1_op/conv_op_weights", "block1/c_conv1_op/conv_op_bn_offset"], "device": "/device:CPU:0", "attr": {"dilations": {"list": {"i": ["1", "1", "1", "1"]}}, "T": {"type": "DT_FLOAT"}, "data_format": {"s": "TkhXQw=="}, "strides": {"list": {"i": ["1", "1", "1", "1"]}}, "explicit_paddings": {"list": {}}, "use_cudnn_on_gpu": {"b": true}, "num_args": {"i": "1"}, "epsilon": {"f": 0.0}, "padding": {"s": "U0FNRQ=="}, "fused_ops": {"list": {"s": ["Qmlhc0FkZA==", "UmVsdQ=="]}}}}, {"name": "block1/Relu_9", "op": "_FusedConv2D", "input": ["block1/Relu_8", "block1/c_conv2_op/conv_op_weights", "block1/c_conv2_op/conv_op_bn_offset"], "device": "/device:CPU:0", "attr": {"dilations": {"list": {"i": ["1", "1", "1", "1"]}}, "T": {"type": "DT_FLOAT"}, "strides": {"list": {"i": ["1", "1", "1", "1"]}}, "data_format": {"s": "TkhXQw=="}, "use_cudnn_on_gpu": {"b": true}, "explicit_paddings": {"list": {}}, "num_args": {"i": "1"}, "epsilon": {"f": 0.0}, "padding": {"s": "U0FNRQ=="}, "fused_ops": {"list": {"s": ["Qmlhc0FkZA==", "UmVsdQ=="]}}}}, {"name": "block1/Relu_10", "op": "_FusedConv2D", "input": ["block1/Relu_9", "block1/c_conv3_op/conv_op_weights", "block1/c_conv3_op/conv_op_bn_offset"], "device": "/device:CPU:0", "attr": {"data_format": {"s": "TkhXQw=="}, "strides": {"list": {"i": ["1", "1", "1", "1"]}}, "use_cudnn_on_gpu": {"b": true}, "explicit_paddings": {"list": {}}, "num_args": {"i": "1"}, "epsilon": {"f": 0.0}, "padding": {"s": "U0FNRQ=="}, "fused_ops": {"list": {"s": ["Qmlhc0FkZA==", "UmVsdQ=="]}}, "dilations": {"list": {"i": ["1", "1", "1", "1"]}}, "T": {"type": "DT_FLOAT"}}}, {"name": "block1/Add_2", "op": "Add", "input": ["block1/Relu_10", "block1/Relu_7"], "attr": {"T": {"type": "DT_FLOAT"}}}, {"name": "block1/Relu_11", "op": "Relu", "input": ["block1/Add_2"], "attr": {"T": {"type": "DT_FLOAT"}}}, {"name": "block2/Relu", "op": "_FusedConv2D", "input": ["block1/Relu_11", "block2/a_conv1_op/conv_op_weights", "block2/a_conv1_op/conv_op_bn_offset"], "device": "/device:CPU:0", "attr": {"strides": {"list": {"i": ["1", "1", "1", "1"]}}, "data_format": {"s": "TkhXQw=="}, "use_cudnn_on_gpu": {"b": true}, "explicit_paddings": {"list": {}}, "num_args": {"i": "1"}, "epsilon": {"f": 0.0}, "padding": {"s": "U0FNRQ=="}, "fused_ops": {"list": {"s": ["Qmlhc0FkZA==", "UmVsdQ=="]}}, "dilations": {"list": {"i": ["1", "1", "1", "1"]}}, "T": {"type": "DT_FLOAT"}}}, {"name": "block2/batch_normalization_3/FusedBatchNormV3", "op": "_FusedConv2D", "input": ["block1/Relu_11", "block2/a_conv4_op/conv_op_weights", "block2/a_conv4_op/conv_op_bn_offset"], "device": "/device:CPU:0", "attr": {"epsilon": {"f": 0.0}, "padding": {"s": "U0FNRQ=="}, "fused_ops": {"list": {"s": ["Qmlhc0FkZA=="]}}, "dilations": {"list": {"i": ["1", "1", "1", "1"]}}, "T": {"type": "DT_FLOAT"}, "strides": {"list": {"i": ["1", "2", "2", "1"]}}, "data_format": {"s": "TkhXQw=="}, "explicit_paddings": {"list": {}}, "use_cudnn_on_gpu": {"b": true}, "num_args": {"i": "1"}}}, {"name": "block2/Relu_1", "op": "_FusedConv2D", "input": ["block2/Relu", "block2/a_conv2_op/conv_op_weights", "block2/a_conv2_op/conv_op_bn_offset"], "device": "/device:CPU:0", "attr": {"data_format": {"s": "TkhXQw=="}, "strides": {"list": {"i": ["1", "2", "2", "1"]}}, "use_cudnn_on_gpu": {"b": true}, "explicit_paddings": {"list": {}}, "num_args": {"i": "1"}, "epsilon": {"f": 0.0}, "padding": {"s": "U0FNRQ=="}, "fused_ops": {"list": {"s": ["Qmlhc0FkZA==", "UmVsdQ=="]}}, "dilations": {"list": {"i": ["1", "1", "1", "1"]}}, "T": {"type": "DT_FLOAT"}}}, {"name": "block2/Relu_2", "op": "_FusedConv2D", "input": ["block2/Relu_1", "block2/a_conv3_op/conv_op_weights", "block2/a_conv3_op/conv_op_bn_offset"], "device": "/device:CPU:0", "attr": {"dilations": {"list": {"i": ["1", "1", "1", "1"]}}, "T": {"type": "DT_FLOAT"}, "data_format": {"s": "TkhXQw=="}, "strides": {"list": {"i": ["1", "1", "1", "1"]}}, "use_cudnn_on_gpu": {"b": true}, "explicit_paddings": {"list": {}}, "num_args": {"i": "1"}, "epsilon": {"f": 0.0}, "padding": {"s": "U0FNRQ=="}, "fused_ops": {"list": {"s": ["Qmlhc0FkZA==", "UmVsdQ=="]}}}}, {"name": "block2/Add", "op": "Add", "input": ["block2/Relu_2", "block2/batch_normalization_3/FusedBatchNormV3"], "attr": {"T": {"type": "DT_FLOAT"}}}, {"name": "block2/Relu_3", "op": "Relu", "input": ["block2/Add"], "attr": {"T": {"type": "DT_FLOAT"}}}, {"name": "block2/Relu_4", "op": "_FusedConv2D", "input": ["block2/Relu_3", "block2/b_conv1_op/conv_op_weights", "block2/b_conv1_op/conv_op_bn_offset"], "device": "/device:CPU:0", "attr": {"dilations": {"list": {"i": ["1", "1", "1", "1"]}}, "T": {"type": "DT_FLOAT"}, "strides": {"list": {"i": ["1", "1", "1", "1"]}}, "data_format": {"s": "TkhXQw=="}, "explicit_paddings": {"list": {}}, "use_cudnn_on_gpu": {"b": true}, "num_args": {"i": "1"}, "epsilon": {"f": 0.0}, "padding": {"s": "U0FNRQ=="}, "fused_ops": {"list": {"s": ["Qmlhc0FkZA==", "UmVsdQ=="]}}}}, {"name": "block2/Relu_5", "op": "_FusedConv2D", "input": ["block2/Relu_4", "block2/b_conv2_op/conv_op_weights", "block2/b_conv2_op/conv_op_bn_offset"], "device": "/device:CPU:0", "attr": {"data_format": {"s": "TkhXQw=="}, "strides": {"list": {"i": ["1", "1", "1", "1"]}}, "explicit_paddings": {"list": {}}, "use_cudnn_on_gpu": {"b": true}, "num_args": {"i": "1"}, "epsilon": {"f": 0.0}, "padding": {"s": "U0FNRQ=="}, "fused_ops": {"list": {"s": ["Qmlhc0FkZA==", "UmVsdQ=="]}}, "dilations": {"list": {"i": ["1", "1", "1", "1"]}}, "T": {"type": "DT_FLOAT"}}}, {"name": "block2/Relu_6", "op": "_FusedConv2D", "input": ["block2/Relu_5", "block2/b_conv3_op/conv_op_weights", "block2/b_conv3_op/conv_op_bn_offset"], "device": "/device:CPU:0", "attr": {"dilations": {"list": {"i": ["1", "1", "1", "1"]}}, "T": {"type": "DT_FLOAT"}, "data_format": {"s": "TkhXQw=="}, "strides": {"list": {"i": ["1", "1", "1", "1"]}}, "explicit_paddings": {"list": {}}, "use_cudnn_on_gpu": {"b": true}, "num_args": {"i": "1"}, "epsilon": {"f": 0.0}, "padding": {"s": "U0FNRQ=="}, "fused_ops": {"list": {"s": ["Qmlhc0FkZA==", "UmVsdQ=="]}}}}, {"name": "block2/Add_1", "op": "Add", "input": ["block2/Relu_3", "block2/Relu_6"], "attr": {"T": {"type": "DT_FLOAT"}}}, {"name": "block2/Relu_7", "op": "Relu", "input": ["block2/Add_1"], "attr": {"T": {"type": "DT_FLOAT"}}}, {"name": "block2/Relu_8", "op": "_FusedConv2D", "input": ["block2/Relu_7", "block2/c_conv1_op/conv_op_weights", "block2/c_conv1_op/conv_op_bn_offset"], "device": "/device:CPU:0", "attr": {"data_format": {"s": "TkhXQw=="}, "strides": {"list": {"i": ["1", "1", "1", "1"]}}, "explicit_paddings": {"list": {}}, "use_cudnn_on_gpu": {"b": true}, "num_args": {"i": "1"}, "epsilon": {"f": 0.0}, "padding": {"s": "U0FNRQ=="}, "fused_ops": {"list": {"s": ["Qmlhc0FkZA==", "UmVsdQ=="]}}, "dilations": {"list": {"i": ["1", "1", "1", "1"]}}, "T": {"type": "DT_FLOAT"}}}, {"name": "block2/Relu_9", "op": "_FusedConv2D", "input": ["block2/Relu_8", "block2/c_conv2_op/conv_op_weights", "block2/c_conv2_op/conv_op_bn_offset"], "device": "/device:CPU:0", "attr": {"epsilon": {"f": 0.0}, "padding": {"s": "U0FNRQ=="}, "fused_ops": {"list": {"s": ["Qmlhc0FkZA==", "UmVsdQ=="]}}, "dilations": {"list": {"i": ["1", "1", "1", "1"]}}, "T": {"type": "DT_FLOAT"}, "data_format": {"s": "TkhXQw=="}, "strides": {"list": {"i": ["1", "1", "1", "1"]}}, "use_cudnn_on_gpu": {"b": true}, "explicit_paddings": {"list": {}}, "num_args": {"i": "1"}}}, {"name": "block2/Relu_10", "op": "_FusedConv2D", "input": ["block2/Relu_9", "block2/c_conv3_op/conv_op_weights", "block2/c_conv3_op/conv_op_bn_offset"], "device": "/device:CPU:0", "attr": {"dilations": {"list": {"i": ["1", "1", "1", "1"]}}, "T": {"type": "DT_FLOAT"}, "strides": {"list": {"i": ["1", "1", "1", "1"]}}, "data_format": {"s": "TkhXQw=="}, "explicit_paddings": {"list": {}}, "use_cudnn_on_gpu": {"b": true}, "num_args": {"i": "1"}, "epsilon": {"f": 0.0}, "padding": {"s": "U0FNRQ=="}, "fused_ops": {"list": {"s": ["Qmlhc0FkZA==", "UmVsdQ=="]}}}}, {"name": "block2/Add_2", "op": "Add", "input": ["block2/Relu_10", "block2/Relu_7"], "attr": {"T": {"type": "DT_FLOAT"}}}, {"name": "block2/Relu_11", "op": "Relu", "input": ["block2/Add_2"], "attr": {"T": {"type": "DT_FLOAT"}}}, {"name": "block2/Relu_12", "op": "_FusedConv2D", "input": ["block2/Relu_11", "block2/d_conv1_op/conv_op_weights", "block2/d_conv1_op/conv_op_bn_offset"], "device": "/device:CPU:0", "attr": {"dilations": {"list": {"i": ["1", "1", "1", "1"]}}, "T": {"type": "DT_FLOAT"}, "data_format": {"s": "TkhXQw=="}, "strides": {"list": {"i": ["1", "1", "1", "1"]}}, "use_cudnn_on_gpu": {"b": true}, "explicit_paddings": {"list": {}}, "num_args": {"i": "1"}, "epsilon": {"f": 0.0}, "padding": {"s": "U0FNRQ=="}, "fused_ops": {"list": {"s": ["Qmlhc0FkZA==", "UmVsdQ=="]}}}}, {"name": "block2/Relu_13", "op": "_FusedConv2D", "input": ["block2/Relu_12", "block2/d_conv2_op/conv_op_weights", "block2/d_conv2_op/conv_op_bn_offset"], "device": "/device:CPU:0", "attr": {"dilations": {"list": {"i": ["1", "1", "1", "1"]}}, "T": {"type": "DT_FLOAT"}, "strides": {"list": {"i": ["1", "1", "1", "1"]}}, "data_format": {"s": "TkhXQw=="}, "explicit_paddings": {"list": {}}, "use_cudnn_on_gpu": {"b": true}, "num_args": {"i": "1"}, "epsilon": {"f": 0.0}, "padding": {"s": "U0FNRQ=="}, "fused_ops": {"list": {"s": ["Qmlhc0FkZA==", "UmVsdQ=="]}}}}, {"name": "block2/Relu_14", "op": "_FusedConv2D", "input": ["block2/Relu_13", "block2/d_conv3_op/conv_op_weights", "block2/d_conv3_op/conv_op_bn_offset"], "device": "/device:CPU:0", "attr": {"strides": {"list": {"i": ["1", "1", "1", "1"]}}, "data_format": {"s": "TkhXQw=="}, "explicit_paddings": {"list": {}}, "use_cudnn_on_gpu": {"b": true}, "num_args": {"i": "1"}, "epsilon": {"f": 0.0}, "padding": {"s": "U0FNRQ=="}, "fused_ops": {"list": {"s": ["Qmlhc0FkZA==", "UmVsdQ=="]}}, "dilations": {"list": {"i": ["1", "1", "1", "1"]}}, "T": {"type": "DT_FLOAT"}}}, {"name": "block2/Add_3", "op": "Add", "input": ["block2/Relu_11", "block2/Relu_14"], "attr": {"T": {"type": "DT_FLOAT"}}}, {"name": "block2/Relu_15", "op": "Relu", "input": ["block2/Add_3"], "attr": {"T": {"type": "DT_FLOAT"}}}, {"name": "block3/Relu", "op": "_FusedConv2D", "input": ["block2/Relu_15", "block3/a_conv1_op/conv_op_weights", "block3/a_conv1_op/conv_op_bn_offset"], "device": "/device:CPU:0", "attr": {"strides": {"list": {"i": ["1", "1", "1", "1"]}}, "data_format": {"s": "TkhXQw=="}, "explicit_paddings": {"list": {}}, "use_cudnn_on_gpu": {"b": true}, "num_args": {"i": "1"}, "epsilon": {"f": 0.0}, "padding": {"s": "U0FNRQ=="}, "fused_ops": {"list": {"s": ["Qmlhc0FkZA==", "UmVsdQ=="]}}, "dilations": {"list": {"i": ["1", "1", "1", "1"]}}, "T": {"type": "DT_FLOAT"}}}, {"name": "block3/batch_normalization_3/FusedBatchNormV3", "op": "_FusedConv2D", "input": ["block2/Relu_15", "block3/a_conv4_op/conv_op_weights", "block3/a_conv4_op/conv_op_bn_offset"], "device": "/device:CPU:0", "attr": {"epsilon": {"f": 0.0}, "padding": {"s": "U0FNRQ=="}, "fused_ops": {"list": {"s": ["Qmlhc0FkZA=="]}}, "dilations": {"list": {"i": ["1", "1", "1", "1"]}}, "T": {"type": "DT_FLOAT"}, "data_format": {"s": "TkhXQw=="}, "strides": {"list": {"i": ["1", "2", "2", "1"]}}, "use_cudnn_on_gpu": {"b": true}, "explicit_paddings": {"list": {}}, "num_args": {"i": "1"}}}, {"name": "block3/Relu_1", "op": "_FusedConv2D", "input": ["block3/Relu", "block3/a_conv2_op/conv_op_weights", "block3/a_conv2_op/conv_op_bn_offset"], "device": "/device:CPU:0", "attr": {"dilations": {"list": {"i": ["1", "1", "1", "1"]}}, "T": {"type": "DT_FLOAT"}, "data_format": {"s": "TkhXQw=="}, "strides": {"list": {"i": ["1", "2", "2", "1"]}}, "explicit_paddings": {"list": {}}, "use_cudnn_on_gpu": {"b": true}, "num_args": {"i": "1"}, "epsilon": {"f": 0.0}, "padding": {"s": "U0FNRQ=="}, "fused_ops": {"list": {"s": ["Qmlhc0FkZA==", "UmVsdQ=="]}}}}, {"name": "block3/Relu_2", "op": "_FusedConv2D", "input": ["block3/Relu_1", "block3/a_conv3_op/conv_op_weights", "block3/a_conv3_op/conv_op_bn_offset"], "device": "/device:CPU:0", "attr": {"epsilon": {"f": 0.0}, "padding": {"s": "U0FNRQ=="}, "fused_ops": {"list": {"s": ["Qmlhc0FkZA==", "UmVsdQ=="]}}, "dilations": {"list": {"i": ["1", "1", "1", "1"]}}, "T": {"type": "DT_FLOAT"}, "strides": {"list": {"i": ["1", "1", "1", "1"]}}, "data_format": {"s": "TkhXQw=="}, "explicit_paddings": {"list": {}}, "use_cudnn_on_gpu": {"b": true}, "num_args": {"i": "1"}}}, {"name": "block3/Add", "op": "Add", "input": ["block3/Relu_2", "block3/batch_normalization_3/FusedBatchNormV3"], "attr": {"T": {"type": "DT_FLOAT"}}}, {"name": "block3/Relu_3", "op": "Relu", "input": ["block3/Add"], "attr": {"T": {"type": "DT_FLOAT"}}}, {"name": "block3/Relu_4", "op": "_FusedConv2D", "input": ["block3/Relu_3", "block3/b_conv1_op/conv_op_weights", "block3/b_conv1_op/conv_op_bn_offset"], "device": "/device:CPU:0", "attr": {"dilations": {"list": {"i": ["1", "1", "1", "1"]}}, "T": {"type": "DT_FLOAT"}, "data_format": {"s": "TkhXQw=="}, "strides": {"list": {"i": ["1", "1", "1", "1"]}}, "use_cudnn_on_gpu": {"b": true}, "explicit_paddings": {"list": {}}, "num_args": {"i": "1"}, "epsilon": {"f": 0.0}, "padding": {"s": "U0FNRQ=="}, "fused_ops": {"list": {"s": ["Qmlhc0FkZA==", "UmVsdQ=="]}}}}, {"name": "block3/Relu_5", "op": "_FusedConv2D", "input": ["block3/Relu_4", "block3/b_conv2_op/conv_op_weights", "block3/b_conv2_op/conv_op_bn_offset"], "device": "/device:CPU:0", "attr": {"epsilon": {"f": 0.0}, "padding": {"s": "U0FNRQ=="}, "fused_ops": {"list": {"s": ["Qmlhc0FkZA==", "UmVsdQ=="]}}, "dilations": {"list": {"i": ["1", "1", "1", "1"]}}, "T": {"type": "DT_FLOAT"}, "strides": {"list": {"i": ["1", "1", "1", "1"]}}, "data_format": {"s": "TkhXQw=="}, "use_cudnn_on_gpu": {"b": true}, "explicit_paddings": {"list": {}}, "num_args": {"i": "1"}}}, {"name": "block3/Relu_6", "op": "_FusedConv2D", "input": ["block3/Relu_5", "block3/b_conv3_op/conv_op_weights", "block3/b_conv3_op/conv_op_bn_offset"], "device": "/device:CPU:0", "attr": {"dilations": {"list": {"i": ["1", "1", "1", "1"]}}, "T": {"type": "DT_FLOAT"}, "data_format": {"s": "TkhXQw=="}, "strides": {"list": {"i": ["1", "1", "1", "1"]}}, "use_cudnn_on_gpu": {"b": true}, "explicit_paddings": {"list": {}}, "num_args": {"i": "1"}, "epsilon": {"f": 0.0}, "padding": {"s": "U0FNRQ=="}, "fused_ops": {"list": {"s": ["Qmlhc0FkZA==", "UmVsdQ=="]}}}}, {"name": "block3/Add_1", "op": "Add", "input": ["block3/Relu_3", "block3/Relu_6"], "attr": {"T": {"type": "DT_FLOAT"}}}, {"name": "block3/Relu_7", "op": "Relu", "input": ["block3/Add_1"], "attr": {"T": {"type": "DT_FLOAT"}}}, {"name": "block3/Relu_8", "op": "_FusedConv2D", "input": ["block3/Relu_7", "block3/c_conv1_op/conv_op_weights", "block3/c_conv1_op/conv_op_bn_offset"], "device": "/device:CPU:0", "attr": {"epsilon": {"f": 0.0}, "padding": {"s": "U0FNRQ=="}, "fused_ops": {"list": {"s": ["Qmlhc0FkZA==", "UmVsdQ=="]}}, "dilations": {"list": {"i": ["1", "1", "1", "1"]}}, "T": {"type": "DT_FLOAT"}, "strides": {"list": {"i": ["1", "1", "1", "1"]}}, "data_format": {"s": "TkhXQw=="}, "use_cudnn_on_gpu": {"b": true}, "explicit_paddings": {"list": {}}, "num_args": {"i": "1"}}}, {"name": "block3/Relu_9", "op": "_FusedConv2D", "input": ["block3/Relu_8", "block3/c_conv2_op/conv_op_weights", "block3/c_conv2_op/conv_op_bn_offset"], "device": "/device:CPU:0", "attr": {"dilations": {"list": {"i": ["1", "1", "1", "1"]}}, "T": {"type": "DT_FLOAT"}, "strides": {"list": {"i": ["1", "1", "1", "1"]}}, "data_format": {"s": "TkhXQw=="}, "explicit_paddings": {"list": {}}, "use_cudnn_on_gpu": {"b": true}, "num_args": {"i": "1"}, "epsilon": {"f": 0.0}, "padding": {"s": "U0FNRQ=="}, "fused_ops": {"list": {"s": ["Qmlhc0FkZA==", "UmVsdQ=="]}}}}, {"name": "block3/Relu_10", "op": "_FusedConv2D", "input": ["block3/Relu_9", "block3/c_conv3_op/conv_op_weights", "block3/c_conv3_op/conv_op_bn_offset"], "device": "/device:CPU:0", "attr": {"dilations": {"list": {"i": ["1", "1", "1", "1"]}}, "T": {"type": "DT_FLOAT"}, "strides": {"list": {"i": ["1", "1", "1", "1"]}}, "data_format": {"s": "TkhXQw=="}, "use_cudnn_on_gpu": {"b": true}, "explicit_paddings": {"list": {}}, "num_args": {"i": "1"}, "epsilon": {"f": 0.0}, "padding": {"s": "U0FNRQ=="}, "fused_ops": {"list": {"s": ["Qmlhc0FkZA==", "UmVsdQ=="]}}}}, {"name": "block3/Add_2", "op": "Add", "input": ["block3/Relu_10", "block3/Relu_7"], "attr": {"T": {"type": "DT_FLOAT"}}}, {"name": "block3/Relu_11", "op": "Relu", "input": ["block3/Add_2"], "attr": {"T": {"type": "DT_FLOAT"}}}, {"name": "block3/Relu_12", "op": "_FusedConv2D", "input": ["block3/Relu_11", "block3/d_conv1_op/conv_op_weights", "block3/d_conv1_op/conv_op_bn_offset"], "device": "/device:CPU:0", "attr": {"dilations": {"list": {"i": ["1", "1", "1", "1"]}}, "T": {"type": "DT_FLOAT"}, "strides": {"list": {"i": ["1", "1", "1", "1"]}}, "data_format": {"s": "TkhXQw=="}, "use_cudnn_on_gpu": {"b": true}, "explicit_paddings": {"list": {}}, "num_args": {"i": "1"}, "epsilon": {"f": 0.0}, "padding": {"s": "U0FNRQ=="}, "fused_ops": {"list": {"s": ["Qmlhc0FkZA==", "UmVsdQ=="]}}}}, {"name": "block3/Relu_13", "op": "_FusedConv2D", "input": ["block3/Relu_12", "block3/d_conv2_op/conv_op_weights", "block3/d_conv2_op/conv_op_bn_offset"], "device": "/device:CPU:0", "attr": {"data_format": {"s": "TkhXQw=="}, "strides": {"list": {"i": ["1", "1", "1", "1"]}}, "explicit_paddings": {"list": {}}, "use_cudnn_on_gpu": {"b": true}, "num_args": {"i": "1"}, "epsilon": {"f": 0.0}, "padding": {"s": "U0FNRQ=="}, "fused_ops": {"list": {"s": ["Qmlhc0FkZA==", "UmVsdQ=="]}}, "dilations": {"list": {"i": ["1", "1", "1", "1"]}}, "T": {"type": "DT_FLOAT"}}}, {"name": "block3/Relu_14", "op": "_FusedConv2D", "input": ["block3/Relu_13", "block3/d_conv3_op/conv_op_weights", "block3/d_conv3_op/conv_op_bn_offset"], "device": "/device:CPU:0", "attr": {"data_format": {"s": "TkhXQw=="}, "strides": {"list": {"i": ["1", "1", "1", "1"]}}, "explicit_paddings": {"list": {}}, "use_cudnn_on_gpu": {"b": true}, "num_args": {"i": "1"}, "epsilon": {"f": 0.0}, "padding": {"s": "U0FNRQ=="}, "fused_ops": {"list": {"s": ["Qmlhc0FkZA==", "UmVsdQ=="]}}, "dilations": {"list": {"i": ["1", "1", "1", "1"]}}, "T": {"type": "DT_FLOAT"}}}, {"name": "block3/Add_3", "op": "Add", "input": ["block3/Relu_11", "block3/Relu_14"], "attr": {"T": {"type": "DT_FLOAT"}}}, {"name": "block3/Relu_15", "op": "Relu", "input": ["block3/Add_3"], "attr": {"T": {"type": "DT_FLOAT"}}}, {"name": "block3/Relu_16", "op": "_FusedConv2D", "input": ["block3/Relu_15", "block3/e_conv1_op/conv_op_weights", "block3/e_conv1_op/conv_op_bn_offset"], "device": "/device:CPU:0", "attr": {"dilations": {"list": {"i": ["1", "1", "1", "1"]}}, "T": {"type": "DT_FLOAT"}, "data_format": {"s": "TkhXQw=="}, "strides": {"list": {"i": ["1", "1", "1", "1"]}}, "use_cudnn_on_gpu": {"b": true}, "explicit_paddings": {"list": {}}, "num_args": {"i": "1"}, "epsilon": {"f": 0.0}, "padding": {"s": "U0FNRQ=="}, "fused_ops": {"list": {"s": ["Qmlhc0FkZA==", "UmVsdQ=="]}}}}, {"name": "block3/Relu_17", "op": "_FusedConv2D", "input": ["block3/Relu_16", "block3/e_conv2_op/conv_op_weights", "block3/e_conv2_op/conv_op_bn_offset"], "device": "/device:CPU:0", "attr": {"dilations": {"list": {"i": ["1", "1", "1", "1"]}}, "T": {"type": "DT_FLOAT"}, "data_format": {"s": "TkhXQw=="}, "strides": {"list": {"i": ["1", "1", "1", "1"]}}, "explicit_paddings": {"list": {}}, "use_cudnn_on_gpu": {"b": true}, "num_args": {"i": "1"}, "epsilon": {"f": 0.0}, "padding": {"s": "U0FNRQ=="}, "fused_ops": {"list": {"s": ["Qmlhc0FkZA==", "UmVsdQ=="]}}}}, {"name": "block3/Relu_18", "op": "_FusedConv2D", "input": ["block3/Relu_17", "block3/e_conv3_op/conv_op_weights", "block3/e_conv3_op/conv_op_bn_offset"], "device": "/device:CPU:0", "attr": {"data_format": {"s": "TkhXQw=="}, "strides": {"list": {"i": ["1", "1", "1", "1"]}}, "explicit_paddings": {"list": {}}, "use_cudnn_on_gpu": {"b": true}, "num_args": {"i": "1"}, "epsilon": {"f": 0.0}, "padding": {"s": "U0FNRQ=="}, "fused_ops": {"list": {"s": ["Qmlhc0FkZA==", "UmVsdQ=="]}}, "dilations": {"list": {"i": ["1", "1", "1", "1"]}}, "T": {"type": "DT_FLOAT"}}}, {"name": "block3/Add_4", "op": "Add", "input": ["block3/Relu_15", "block3/Relu_18"], "attr": {"T": {"type": "DT_FLOAT"}}}, {"name": "block3/Relu_19", "op": "Relu", "input": ["block3/Add_4"], "attr": {"T": {"type": "DT_FLOAT"}}}, {"name": "block4/batch_normalization_3/FusedBatchNormV3", "op": "_FusedConv2D", "input": ["block3/Relu_19", "block4/a_conv4_op/conv_op_weights", "block4/a_conv4_op/conv_op_bn_offset"], "device": "/device:CPU:0", "attr": {"dilations": {"list": {"i": ["1", "1", "1", "1"]}}, "T": {"type": "DT_FLOAT"}, "data_format": {"s": "TkhXQw=="}, "strides": {"list": {"i": ["1", "2", "2", "1"]}}, "use_cudnn_on_gpu": {"b": true}, "explicit_paddings": {"list": {}}, "num_args": {"i": "1"}, "epsilon": {"f": 0.0}, "padding": {"s": "U0FNRQ=="}, "fused_ops": {"list": {"s": ["Qmlhc0FkZA=="]}}}}, {"name": "block4/Relu", "op": "_FusedConv2D", "input": ["block3/Relu_19", "block4/a_conv1_op/conv_op_weights", "block4/a_conv1_op/conv_op_bn_offset"], "device": "/device:CPU:0", "attr": {"data_format": {"s": "TkhXQw=="}, "strides": {"list": {"i": ["1", "1", "1", "1"]}}, "use_cudnn_on_gpu": {"b": true}, "explicit_paddings": {"list": {}}, "num_args": {"i": "1"}, "epsilon": {"f": 0.0}, "padding": {"s": "U0FNRQ=="}, "fused_ops": {"list": {"s": ["Qmlhc0FkZA==", "UmVsdQ=="]}}, "dilations": {"list": {"i": ["1", "1", "1", "1"]}}, "T": {"type": "DT_FLOAT"}}}, {"name": "block4/Relu_1", "op": "_FusedConv2D", "input": ["block4/Relu", "block4/a_conv2_op/conv_op_weights", "block4/a_conv2_op/conv_op_bn_offset"], "device": "/device:CPU:0", "attr": {"epsilon": {"f": 0.0}, "padding": {"s": "U0FNRQ=="}, "fused_ops": {"list": {"s": ["Qmlhc0FkZA==", "UmVsdQ=="]}}, "dilations": {"list": {"i": ["1", "1", "1", "1"]}}, "T": {"type": "DT_FLOAT"}, "strides": {"list": {"i": ["1", "2", "2", "1"]}}, "data_format": {"s": "TkhXQw=="}, "explicit_paddings": {"list": {}}, "use_cudnn_on_gpu": {"b": true}, "num_args": {"i": "1"}}}, {"name": "block4/Relu_2", "op": "_FusedConv2D", "input": ["block4/Relu_1", "block4/a_conv3_op/conv_op_weights", "block4/a_conv3_op/conv_op_bn_offset"], "device": "/device:CPU:0", "attr": {"data_format": {"s": "TkhXQw=="}, "strides": {"list": {"i": ["1", "1", "1", "1"]}}, "explicit_paddings": {"list": {}}, "use_cudnn_on_gpu": {"b": true}, "num_args": {"i": "1"}, "epsilon": {"f": 0.0}, "padding": {"s": "U0FNRQ=="}, "fused_ops": {"list": {"s": ["Qmlhc0FkZA==", "UmVsdQ=="]}}, "dilations": {"list": {"i": ["1", "1", "1", "1"]}}, "T": {"type": "DT_FLOAT"}}}, {"name": "block4/Add", "op": "Add", "input": ["block4/Relu_2", "block4/batch_normalization_3/FusedBatchNormV3"], "attr": {"T": {"type": "DT_FLOAT"}}}, {"name": "block4/Relu_3", "op": "Relu", "input": ["block4/Add"], "attr": {"T": {"type": "DT_FLOAT"}}}, {"name": "block4/Relu_4", "op": "_FusedConv2D", "input": ["block4/Relu_3", "block4/b_conv1_op/conv_op_weights", "block4/b_conv1_op/conv_op_bn_offset"], "device": "/device:CPU:0", "attr": {"epsilon": {"f": 0.0}, "padding": {"s": "U0FNRQ=="}, "fused_ops": {"list": {"s": ["Qmlhc0FkZA==", "UmVsdQ=="]}}, "dilations": {"list": {"i": ["1", "1", "1", "1"]}}, "T": {"type": "DT_FLOAT"}, "data_format": {"s": "TkhXQw=="}, "strides": {"list": {"i": ["1", "1", "1", "1"]}}, "explicit_paddings": {"list": {}}, "use_cudnn_on_gpu": {"b": true}, "num_args": {"i": "1"}}}, {"name": "block4/Relu_5", "op": "_FusedConv2D", "input": ["block4/Relu_4", "block4/b_conv2_op/conv_op_weights", "block4/b_conv2_op/conv_op_bn_offset"], "device": "/device:CPU:0", "attr": {"epsilon": {"f": 0.0}, "padding": {"s": "U0FNRQ=="}, "fused_ops": {"list": {"s": ["Qmlhc0FkZA==", "UmVsdQ=="]}}, "dilations": {"list": {"i": ["1", "1", "1", "1"]}}, "T": {"type": "DT_FLOAT"}, "strides": {"list": {"i": ["1", "1", "1", "1"]}}, "data_format": {"s": "TkhXQw=="}, "use_cudnn_on_gpu": {"b": true}, "explicit_paddings": {"list": {}}, "num_args": {"i": "1"}}}, {"name": "block4/Relu_6", "op": "_FusedConv2D", "input": ["block4/Relu_5", "block4/b_conv3_op/conv_op_weights", "block4/b_conv3_op/conv_op_bn_offset"], "device": "/device:CPU:0", "attr": {"dilations": {"list": {"i": ["1", "1", "1", "1"]}}, "T": {"type": "DT_FLOAT"}, "data_format": {"s": "TkhXQw=="}, "strides": {"list": {"i": ["1", "1", "1", "1"]}}, "explicit_paddings": {"list": {}}, "use_cudnn_on_gpu": {"b": true}, "num_args": {"i": "1"}, "epsilon": {"f": 0.0}, "padding": {"s": "U0FNRQ=="}, "fused_ops": {"list": {"s": ["Qmlhc0FkZA==", "UmVsdQ=="]}}}}, {"name": "block4/Add_1", "op": "Add", "input": ["block4/Relu_3", "block4/Relu_6"], "attr": {"T": {"type": "DT_FLOAT"}}}, {"name": "block4/Relu_7", "op": "Relu", "input": ["block4/Add_1"], "attr": {"T": {"type": "DT_FLOAT"}}}, {"name": "block4/Relu_8", "op": "_FusedConv2D", "input": ["block4/Relu_7", "block4/c_conv1_op/conv_op_weights", "block4/c_conv1_op/conv_op_bn_offset"], "device": "/device:CPU:0", "attr": {"dilations": {"list": {"i": ["1", "1", "1", "1"]}}, "T": {"type": "DT_FLOAT"}, "data_format": {"s": "TkhXQw=="}, "strides": {"list": {"i": ["1", "1", "1", "1"]}}, "explicit_paddings": {"list": {}}, "use_cudnn_on_gpu": {"b": true}, "num_args": {"i": "1"}, "epsilon": {"f": 0.0}, "padding": {"s": "U0FNRQ=="}, "fused_ops": {"list": {"s": ["Qmlhc0FkZA==", "UmVsdQ=="]}}}}, {"name": "block4/Relu_9", "op": "_FusedConv2D", "input": ["block4/Relu_8", "block4/c_conv2_op/conv_op_weights", "block4/c_conv2_op/conv_op_bn_offset"], "device": "/device:CPU:0", "attr": {"dilations": {"list": {"i": ["1", "1", "1", "1"]}}, "T": {"type": "DT_FLOAT"}, "strides": {"list": {"i": ["1", "1", "1", "1"]}}, "data_format": {"s": "TkhXQw=="}, "use_cudnn_on_gpu": {"b": true}, "explicit_paddings": {"list": {}}, "num_args": {"i": "1"}, "epsilon": {"f": 0.0}, "padding": {"s": "U0FNRQ=="}, "fused_ops": {"list": {"s": ["Qmlhc0FkZA==", "UmVsdQ=="]}}}}, {"name": "block4/Relu_10", "op": "_FusedConv2D", "input": ["block4/Relu_9", "block4/c_conv3_op/conv_op_weights", "block4/c_conv3_op/conv_op_bn_offset"], "device": "/device:CPU:0", "attr": {"data_format": {"s": "TkhXQw=="}, "strides": {"list": {"i": ["1", "1", "1", "1"]}}, "explicit_paddings": {"list": {}}, "use_cudnn_on_gpu": {"b": true}, "num_args": {"i": "1"}, "epsilon": {"f": 0.0}, "padding": {"s": "U0FNRQ=="}, "fused_ops": {"list": {"s": ["Qmlhc0FkZA==", "UmVsdQ=="]}}, "dilations": {"list": {"i": ["1", "1", "1", "1"]}}, "T": {"type": "DT_FLOAT"}}}, {"name": "block4/Add_2", "op": "Add", "input": ["block4/Relu_10", "block4/Relu_7"], "attr": {"T": {"type": "DT_FLOAT"}}}, {"name": "block4/Relu_11", "op": "Relu", "input": ["block4/Add_2"], "attr": {"T": {"type": "DT_FLOAT"}}}, {"name": "block4/Relu_12", "op": "_FusedConv2D", "input": ["block4/Relu_11", "block4/d_conv1_op/conv_op_weights", "block4/d_conv1_op/conv_op_bn_offset"], "device": "/device:CPU:0", "attr": {"epsilon": {"f": 0.0}, "padding": {"s": "U0FNRQ=="}, "fused_ops": {"list": {"s": ["Qmlhc0FkZA==", "UmVsdQ=="]}}, "dilations": {"list": {"i": ["1", "1", "1", "1"]}}, "T": {"type": "DT_FLOAT"}, "data_format": {"s": "TkhXQw=="}, "strides": {"list": {"i": ["1", "1", "1", "1"]}}, "use_cudnn_on_gpu": {"b": true}, "explicit_paddings": {"list": {}}, "num_args": {"i": "1"}}}, {"name": "block4/Relu_13", "op": "_FusedConv2D", "input": ["block4/Relu_12", "block4/d_conv2_op/conv_op_weights", "block4/d_conv2_op/conv_op_bn_offset"], "device": "/device:CPU:0", "attr": {"strides": {"list": {"i": ["1", "1", "1", "1"]}}, "data_format": {"s": "TkhXQw=="}, "use_cudnn_on_gpu": {"b": true}, "explicit_paddings": {"list": {}}, "num_args": {"i": "1"}, "epsilon": {"f": 0.0}, "padding": {"s": "U0FNRQ=="}, "fused_ops": {"list": {"s": ["Qmlhc0FkZA==", "UmVsdQ=="]}}, "dilations": {"list": {"i": ["1", "1", "1", "1"]}}, "T": {"type": "DT_FLOAT"}}}, {"name": "block4/Relu_14", "op": "_FusedConv2D", "input": ["block4/Relu_13", "block4/d_conv3_op/conv_op_weights", "block4/d_conv3_op/conv_op_bn_offset"], "device": "/device:CPU:0", "attr": {"epsilon": {"f": 0.0}, "padding": {"s": "U0FNRQ=="}, "fused_ops": {"list": {"s": ["Qmlhc0FkZA==", "UmVsdQ=="]}}, "dilations": {"list": {"i": ["1", "1", "1", "1"]}}, "T": {"type": "DT_FLOAT"}, "strides": {"list": {"i": ["1", "1", "1", "1"]}}, "data_format": {"s": "TkhXQw=="}, "explicit_paddings": {"list": {}}, "use_cudnn_on_gpu": {"b": true}, "num_args": {"i": "1"}}}, {"name": "block4/Add_3", "op": "Add", "input": ["block4/Relu_11", "block4/Relu_14"], "attr": {"T": {"type": "DT_FLOAT"}}}, {"name": "block4/Relu_15", "op": "Relu", "input": ["block4/Add_3"], "attr": {"T": {"type": "DT_FLOAT"}}}, {"name": "block4/Relu_16", "op": "_FusedConv2D", "input": ["block4/Relu_15", "block4/e_conv1_op/conv_op_weights", "block4/e_conv1_op/conv_op_bn_offset"], "device": "/device:CPU:0", "attr": {"dilations": {"list": {"i": ["1", "1", "1", "1"]}}, "T": {"type": "DT_FLOAT"}, "strides": {"list": {"i": ["1", "1", "1", "1"]}}, "data_format": {"s": "TkhXQw=="}, "use_cudnn_on_gpu": {"b": true}, "explicit_paddings": {"list": {}}, "num_args": {"i": "1"}, "epsilon": {"f": 0.0}, "padding": {"s": "U0FNRQ=="}, "fused_ops": {"list": {"s": ["Qmlhc0FkZA==", "UmVsdQ=="]}}}}, {"name": "block4/Relu_17", "op": "_FusedConv2D", "input": ["block4/Relu_16", "block4/e_conv2_op/conv_op_weights", "block4/e_conv2_op/conv_op_bn_offset"], "device": "/device:CPU:0", "attr": {"data_format": {"s": "TkhXQw=="}, "strides": {"list": {"i": ["1", "1", "1", "1"]}}, "use_cudnn_on_gpu": {"b": true}, "explicit_paddings": {"list": {}}, "num_args": {"i": "1"}, "epsilon": {"f": 0.0}, "padding": {"s": "U0FNRQ=="}, "fused_ops": {"list": {"s": ["Qmlhc0FkZA==", "UmVsdQ=="]}}, "dilations": {"list": {"i": ["1", "1", "1", "1"]}}, "T": {"type": "DT_FLOAT"}}}, {"name": "block4/Relu_18", "op": "_FusedConv2D", "input": ["block4/Relu_17", "block4/e_conv3_op/conv_op_weights", "block4/e_conv3_op/conv_op_bn_offset"], "device": "/device:CPU:0", "attr": {"epsilon": {"f": 0.0}, "padding": {"s": "U0FNRQ=="}, "fused_ops": {"list": {"s": ["Qmlhc0FkZA==", "UmVsdQ=="]}}, "dilations": {"list": {"i": ["1", "1", "1", "1"]}}, "T": {"type": "DT_FLOAT"}, "data_format": {"s": "TkhXQw=="}, "strides": {"list": {"i": ["1", "1", "1", "1"]}}, "explicit_paddings": {"list": {}}, "use_cudnn_on_gpu": {"b": true}, "num_args": {"i": "1"}}}, {"name": "block4/Add_4", "op": "Add", "input": ["block4/Relu_15", "block4/Relu_18"], "attr": {"T": {"type": "DT_FLOAT"}}}, {"name": "block4/Relu_19", "op": "Relu", "input": ["block4/Add_4"], "attr": {"T": {"type": "DT_FLOAT"}}}, {"name": "block4/Relu_20", "op": "_FusedConv2D", "input": ["block4/Relu_19", "block4/f_conv1_op/conv_op_weights", "block4/f_conv1_op/conv_op_bn_offset"], "device": "/device:CPU:0", "attr": {"data_format": {"s": "TkhXQw=="}, "strides": {"list": {"i": ["1", "1", "1", "1"]}}, "use_cudnn_on_gpu": {"b": true}, "explicit_paddings": {"list": {}}, "num_args": {"i": "1"}, "epsilon": {"f": 0.0}, "padding": {"s": "U0FNRQ=="}, "fused_ops": {"list": {"s": ["Qmlhc0FkZA==", "UmVsdQ=="]}}, "dilations": {"list": {"i": ["1", "1", "1", "1"]}}, "T": {"type": "DT_FLOAT"}}}, {"name": "block4/Relu_21", "op": "_FusedConv2D", "input": ["block4/Relu_20", "block4/f_conv2_op/conv_op_weights", "block4/f_conv2_op/conv_op_bn_offset"], "device": "/device:CPU:0", "attr": {"dilations": {"list": {"i": ["1", "1", "1", "1"]}}, "T": {"type": "DT_FLOAT"}, "strides": {"list": {"i": ["1", "1", "1", "1"]}}, "data_format": {"s": "TkhXQw=="}, "explicit_paddings": {"list": {}}, "use_cudnn_on_gpu": {"b": true}, "num_args": {"i": "1"}, "epsilon": {"f": 0.0}, "padding": {"s": "U0FNRQ=="}, "fused_ops": {"list": {"s": ["Qmlhc0FkZA==", "UmVsdQ=="]}}}}, {"name": "block4/Relu_22", "op": "_FusedConv2D", "input": ["block4/Relu_21", "block4/f_conv3_op/conv_op_weights", "block4/f_conv3_op/conv_op_bn_offset"], "device": "/device:CPU:0", "attr": {"strides": {"list": {"i": ["1", "1", "1", "1"]}}, "data_format": {"s": "TkhXQw=="}, "use_cudnn_on_gpu": {"b": true}, "explicit_paddings": {"list": {}}, "num_args": {"i": "1"}, "epsilon": {"f": 0.0}, "padding": {"s": "U0FNRQ=="}, "fused_ops": {"list": {"s": ["Qmlhc0FkZA==", "UmVsdQ=="]}}, "dilations": {"list": {"i": ["1", "1", "1", "1"]}}, "T": {"type": "DT_FLOAT"}}}, {"name": "block4/Add_5", "op": "Add", "input": ["block4/Relu_19", "block4/Relu_22"], "attr": {"T": {"type": "DT_FLOAT"}}}, {"name": "block4/Relu_23", "op": "Relu", "input": ["block4/Add_5"], "attr": {"T": {"type": "DT_FLOAT"}}}, {"name": "fc/avg_pool_op/max_pool_op", "op": "AvgPool", "input": ["block4/Relu_23"], "attr": {"data_format": {"s": "TkhXQw=="}, "strides": {"list": {"i": ["1", "12", "16", "1"]}}, "ksize": {"list": {"i": ["1", "12", "16", "1"]}}, "padding": {"s": "U0FNRQ=="}, "T": {"type": "DT_FLOAT"}}}, {"name": "fc/Reshape", "op": "Reshape", "input": ["fc/avg_pool_op/max_pool_op", "fc/Reshape/shape"], "attr": {"T": {"type": "DT_FLOAT"}, "Tshape": {"type": "DT_INT32"}}}, {"name": "fc/BiasAdd", "op": "_FusedMatMul", "input": ["fc/Reshape", "fc/w_final_op", "fc/b_final_op"], "device": "/device:CPU:0", "attr": {"num_args": {"i": "1"}, "epsilon": {"f": 0.0}, "fused_ops": {"list": {"s": ["Qmlhc0FkZA=="]}}, "transpose_a": {"b": false}, "transpose_b": {"b": false}, "T": {"type": "DT_FLOAT"}}}, {"name": "Softmax", "op": "Softmax", "input": ["fc/BiasAdd"], "attr": {"T": {"type": "DT_FLOAT"}}}, {"name": "output_y", "op": "Identity", "input": ["Softmax"], "attr": {"T": {"type": "DT_FLOAT"}}}], "versions": {"producer": 134}}, "weightsManifest": [{"paths": ["group1-shard1of25.bin", "group1-shard2of25.bin", "group1-shard3of25.bin", "group1-shard4of25.bin", "group1-shard5of25.bin", "group1-shard6of25.bin", "group1-shard7of25.bin", "group1-shard8of25.bin", "group1-shard9of25.bin", "group1-shard10of25.bin", "group1-shard11of25.bin", "group1-shard12of25.bin", "group1-shard13of25.bin", "group1-shard14of25.bin", "group1-shard15of25.bin", "group1-shard16of25.bin", "group1-shard17of25.bin", "group1-shard18of25.bin", "group1-shard19of25.bin", "group1-shard20of25.bin", "group1-shard21of25.bin", "group1-shard22of25.bin", "group1-shard23of25.bin", "group1-shard24of25.bin", "group1-shard25of25.bin"], "weights": [{"name": "fc/b_final_op", "shape": [4], "dtype": "float32"}, {"name": "fc/Reshape/shape", "shape": [2], "dtype": "int32"}, {"name": "fc/w_final_op", "shape": [1024, 4], "dtype": "float32"}, {"name": "block0/conv0_0_op/conv_op_weights", "shape": [7, 7, 1, 64], "dtype": "float32"}, {"name": "block4/a_conv4_op/conv_op_weights", "shape": [1, 1, 512, 1024], "dtype": "float32"}, {"name": "block0/conv0_0_op/conv_op_bn_offset", "shape": [64], "dtype": "float32"}, {"name": "block1/a_conv1_op/conv_op_weights", "shape": [1, 1, 64, 64], "dtype": "float32"}, {"name": "block1/a_conv1_op/conv_op_bn_offset", "shape": [64], "dtype": "float32"}, {"name": "block4/a_conv4_op/conv_op_bn_offset", "shape": [1024], "dtype": "float32"}, {"name": "block1/a_conv4_op/conv_op_weights", "shape": [1, 1, 64, 128], "dtype": "float32"}, {"name": "block1/a_conv4_op/conv_op_bn_offset", "shape": [128], "dtype": "float32"}, {"name": "block1/a_conv2_op/conv_op_weights", "shape": [3, 3, 64, 64], "dtype": "float32"}, {"name": "block4/a_conv2_op/conv_op_weights", "shape": [3, 3, 512, 512], "dtype": "float32"}, {"name": "block1/a_conv2_op/conv_op_bn_offset", "shape": [64], "dtype": "float32"}, {"name": "block4/e_conv3_op/conv_op_bn_offset", "shape": [1024], "dtype": "float32"}, {"name": "block1/a_conv3_op/conv_op_weights", "shape": [1, 1, 64, 128], "dtype": "float32"}, {"name": "block4/a_conv2_op/conv_op_bn_offset", "shape": [512], "dtype": "float32"}, {"name": "block1/a_conv3_op/conv_op_bn_offset", "shape": [128], "dtype": "float32"}, {"name": "block1/b_conv1_op/conv_op_weights", "shape": [1, 1, 128, 64], "dtype": "float32"}, {"name": "block1/b_conv1_op/conv_op_bn_offset", "shape": [64], "dtype": "float32"}, {"name": "block4/a_conv3_op/conv_op_weights", "shape": [1, 1, 512, 1024], "dtype": "float32"}, {"name": "block1/b_conv2_op/conv_op_weights", "shape": [3, 3, 64, 64], "dtype": "float32"}, {"name": "block1/b_conv2_op/conv_op_bn_offset", "shape": [64], "dtype": "float32"}, {"name": "block4/a_conv3_op/conv_op_bn_offset", "shape": [1024], "dtype": "float32"}, {"name": "block1/b_conv3_op/conv_op_weights", "shape": [1, 1, 64, 128], "dtype": "float32"}, {"name": "block1/b_conv3_op/conv_op_bn_offset", "shape": [128], "dtype": "float32"}, {"name": "block1/c_conv1_op/conv_op_weights", "shape": [1, 1, 128, 64], "dtype": "float32"}, {"name": "block1/c_conv1_op/conv_op_bn_offset", "shape": [64], "dtype": "float32"}, {"name": "block1/c_conv2_op/conv_op_weights", "shape": [3, 3, 64, 64], "dtype": "float32"}, {"name": "block4/b_conv1_op/conv_op_weights", "shape": [1, 1, 1024, 512], "dtype": "float32"}, {"name": "block1/c_conv2_op/conv_op_bn_offset", "shape": [64], "dtype": "float32"}, {"name": "block1/c_conv3_op/conv_op_weights", "shape": [1, 1, 64, 128], "dtype": "float32"}, {"name": "block4/b_conv1_op/conv_op_bn_offset", "shape": [512], "dtype": "float32"}, {"name": "block1/c_conv3_op/conv_op_bn_offset", "shape": [128], "dtype": "float32"}, {"name": "block4/f_conv1_op/conv_op_weights", "shape": [1, 1, 1024, 512], "dtype": "float32"}, {"name": "block2/a_conv1_op/conv_op_weights", "shape": [1, 1, 128, 128], "dtype": "float32"}, {"name": "block2/a_conv1_op/conv_op_bn_offset", "shape": [128], "dtype": "float32"}, {"name": "block4/b_conv2_op/conv_op_weights", "shape": [3, 3, 512, 512], "dtype": "float32"}, {"name": "block2/a_conv4_op/conv_op_weights", "shape": [1, 1, 128, 256], "dtype": "float32"}, {"name": "block2/a_conv4_op/conv_op_bn_offset", "shape": [256], "dtype": "float32"}, {"name": "block2/a_conv2_op/conv_op_weights", "shape": [3, 3, 128, 128], "dtype": "float32"}, {"name": "block4/b_conv2_op/conv_op_bn_offset", "shape": [512], "dtype": "float32"}, {"name": "block2/a_conv2_op/conv_op_bn_offset", "shape": [128], "dtype": "float32"}, {"name": "block4/f_conv1_op/conv_op_bn_offset", "shape": [512], "dtype": "float32"}, {"name": "block2/a_conv3_op/conv_op_weights", "shape": [1, 1, 128, 256], "dtype": "float32"}, {"name": "block2/a_conv3_op/conv_op_bn_offset", "shape": [256], "dtype": "float32"}, {"name": "block4/b_conv3_op/conv_op_weights", "shape": [1, 1, 512, 1024], "dtype": "float32"}, {"name": "block2/b_conv1_op/conv_op_weights", "shape": [1, 1, 256, 128], "dtype": "float32"}, {"name": "block2/b_conv1_op/conv_op_bn_offset", "shape": [128], "dtype": "float32"}, {"name": "block4/b_conv3_op/conv_op_bn_offset", "shape": [1024], "dtype": "float32"}, {"name": "block2/b_conv2_op/conv_op_weights", "shape": [3, 3, 128, 128], "dtype": "float32"}, {"name": "block2/b_conv2_op/conv_op_bn_offset", "shape": [128], "dtype": "float32"}, {"name": "block2/b_conv3_op/conv_op_weights", "shape": [1, 1, 128, 256], "dtype": "float32"}, {"name": "block2/b_conv3_op/conv_op_bn_offset", "shape": [256], "dtype": "float32"}, {"name": "block2/c_conv1_op/conv_op_weights", "shape": [1, 1, 256, 128], "dtype": "float32"}, {"name": "block4/c_conv1_op/conv_op_weights", "shape": [1, 1, 1024, 512], "dtype": "float32"}, {"name": "block2/c_conv1_op/conv_op_bn_offset", "shape": [128], "dtype": "float32"}, {"name": "block4/f_conv2_op/conv_op_weights", "shape": [3, 3, 512, 512], "dtype": "float32"}, {"name": "block2/c_conv2_op/conv_op_weights", "shape": [3, 3, 128, 128], "dtype": "float32"}, {"name": "block4/c_conv1_op/conv_op_bn_offset", "shape": [512], "dtype": "float32"}, {"name": "block2/c_conv2_op/conv_op_bn_offset", "shape": [128], "dtype": "float32"}, {"name": "block2/c_conv3_op/conv_op_weights", "shape": [1, 1, 128, 256], "dtype": "float32"}, {"name": "block2/c_conv3_op/conv_op_bn_offset", "shape": [256], "dtype": "float32"}, {"name": "block4/c_conv2_op/conv_op_weights", "shape": [3, 3, 512, 512], "dtype": "float32"}, {"name": "block2/d_conv1_op/conv_op_weights", "shape": [1, 1, 256, 128], "dtype": "float32"}, {"name": "block4/f_conv2_op/conv_op_bn_offset", "shape": [512], "dtype": "float32"}, {"name": "block2/d_conv1_op/conv_op_bn_offset", "shape": [128], "dtype": "float32"}, {"name": "block4/c_conv2_op/conv_op_bn_offset", "shape": [512], "dtype": "float32"}, {"name": "block2/d_conv2_op/conv_op_weights", "shape": [3, 3, 128, 128], "dtype": "float32"}, {"name": "batch_normalization/FusedBatchNormV3/Scaled", "shape": [1], "dtype": "float32"}, {"name": "block2/d_conv2_op/conv_op_bn_offset", "shape": [128], "dtype": "float32"}, {"name": "block2/d_conv3_op/conv_op_weights", "shape": [1, 1, 128, 256], "dtype": "float32"}, {"name": "block4/c_conv3_op/conv_op_weights", "shape": [1, 1, 512, 1024], "dtype": "float32"}, {"name": "block2/d_conv3_op/conv_op_bn_offset", "shape": [256], "dtype": "float32"}, {"name": "block3/a_conv1_op/conv_op_weights", "shape": [1, 1, 256, 256], "dtype": "float32"}, {"name": "block4/c_conv3_op/conv_op_bn_offset", "shape": [1024], "dtype": "float32"}, {"name": "block3/a_conv1_op/conv_op_bn_offset", "shape": [256], "dtype": "float32"}, {"name": "block4/f_conv3_op/conv_op_weights", "shape": [1, 1, 512, 1024], "dtype": "float32"}, {"name": "block3/a_conv4_op/conv_op_weights", "shape": [1, 1, 256, 512], "dtype": "float32"}, {"name": "block3/a_conv4_op/conv_op_bn_offset", "shape": [512], "dtype": "float32"}, {"name": "block3/a_conv2_op/conv_op_weights", "shape": [3, 3, 256, 256], "dtype": "float32"}, {"name": "block3/a_conv2_op/conv_op_bn_offset", "shape": [256], "dtype": "float32"}, {"name": "block3/a_conv3_op/conv_op_weights", "shape": [1, 1, 256, 512], "dtype": "float32"}, {"name": "block4/d_conv1_op/conv_op_weights", "shape": [1, 1, 1024, 512], "dtype": "float32"}, {"name": "block3/a_conv3_op/conv_op_bn_offset", "shape": [512], "dtype": "float32"}, {"name": "block3/b_conv1_op/conv_op_weights", "shape": [1, 1, 512, 256], "dtype": "float32"}, {"name": "block4/d_conv1_op/conv_op_bn_offset", "shape": [512], "dtype": "float32"}, {"name": "block3/b_conv1_op/conv_op_bn_offset", "shape": [256], "dtype": "float32"}, {"name": "block4/f_conv3_op/conv_op_bn_offset", "shape": [1024], "dtype": "float32"}, {"name": "block3/b_conv2_op/conv_op_weights", "shape": [3, 3, 256, 256], "dtype": "float32"}, {"name": "block3/b_conv2_op/conv_op_bn_offset", "shape": [256], "dtype": "float32"}, {"name": "block4/d_conv2_op/conv_op_weights", "shape": [3, 3, 512, 512], "dtype": "float32"}, {"name": "block3/b_conv3_op/conv_op_weights", "shape": [1, 1, 256, 512], "dtype": "float32"}, {"name": "block3/b_conv3_op/conv_op_bn_offset", "shape": [512], "dtype": "float32"}, {"name": "block4/d_conv2_op/conv_op_bn_offset", "shape": [512], "dtype": "float32"}, {"name": "block3/c_conv1_op/conv_op_weights", "shape": [1, 1, 512, 256], "dtype": "float32"}, {"name": "block3/c_conv1_op/conv_op_bn_offset", "shape": [256], "dtype": "float32"}, {"name": "block3/c_conv2_op/conv_op_weights", "shape": [3, 3, 256, 256], "dtype": "float32"}, {"name": "block4/d_conv3_op/conv_op_weights", "shape": [1, 1, 512, 1024], "dtype": "float32"}, {"name": "block3/c_conv2_op/conv_op_bn_offset", "shape": [256], "dtype": "float32"}, {"name": "block3/c_conv3_op/conv_op_weights", "shape": [1, 1, 256, 512], "dtype": "float32"}, {"name": "block4/d_conv3_op/conv_op_bn_offset", "shape": [1024], "dtype": "float32"}, {"name": "block3/c_conv3_op/conv_op_bn_offset", "shape": [512], "dtype": "float32"}, {"name": "block3/d_conv1_op/conv_op_weights", "shape": [1, 1, 512, 256], "dtype": "float32"}, {"name": "block3/d_conv1_op/conv_op_bn_offset", "shape": [256], "dtype": "float32"}, {"name": "block3/d_conv2_op/conv_op_weights", "shape": [3, 3, 256, 256], "dtype": "float32"}, {"name": "block3/d_conv2_op/conv_op_bn_offset", "shape": [256], "dtype": "float32"}, {"name": "block4/e_conv1_op/conv_op_weights", "shape": [1, 1, 1024, 512], "dtype": "float32"}, {"name": "block3/d_conv3_op/conv_op_weights", "shape": [1, 1, 256, 512], "dtype": "float32"}, {"name": "block3/d_conv3_op/conv_op_bn_offset", "shape": [512], "dtype": "float32"}, {"name": "block4/e_conv1_op/conv_op_bn_offset", "shape": [512], "dtype": "float32"}, {"name": "block3/e_conv1_op/conv_op_weights", "shape": [1, 1, 512, 256], "dtype": "float32"}, {"name": "block3/e_conv1_op/conv_op_bn_offset", "shape": [256], "dtype": "float32"}, {"name": "block3/e_conv2_op/conv_op_weights", "shape": [3, 3, 256, 256], "dtype": "float32"}, {"name": "block4/e_conv2_op/conv_op_weights", "shape": [3, 3, 512, 512], "dtype": "float32"}, {"name": "block3/e_conv2_op/conv_op_bn_offset", "shape": [256], "dtype": "float32"}, {"name": "batch_normalization/FusedBatchNormV3/Offset", "shape": [1], "dtype": "float32"}, {"name": "block3/e_conv3_op/conv_op_weights", "shape": [1, 1, 256, 512], "dtype": "float32"}, {"name": "block4/e_conv2_op/conv_op_bn_offset", "shape": [512], "dtype": "float32"}, {"name": "block3/e_conv3_op/conv_op_bn_offset", "shape": [512], "dtype": "float32"}, {"name": "block4/a_conv1_op/conv_op_weights", "shape": [1, 1, 512, 512], "dtype": "float32"}, {"name": "block4/a_conv1_op/conv_op_bn_offset", "shape": [512], "dtype": "float32"}, {"name": "block4/e_conv3_op/conv_op_weights", "shape": [1, 1, 512, 1024], "dtype": "float32"}]}]}